#loc = loc("/home/zeus/miniconda3/envs/cloudspace/lib/python3.13/site-packages/fla/ops/utils/solve_tril.py":183:0)
#loc220 = loc("/home/zeus/miniconda3/envs/cloudspace/lib/python3.13/site-packages/triton/language/standard.py":284:0)
#loc222 = loc(unknown)
#loc225 = loc("/home/zeus/miniconda3/envs/cloudspace/lib/python3.13/site-packages/triton/language/standard.py":259:0)
module {
  tt.func public @merge_16x16_to_64x64_inverse_kernel(%arg0: !tt.ptr<f32> {tt.divisibility = 16 : i32} loc("/home/zeus/miniconda3/envs/cloudspace/lib/python3.13/site-packages/fla/ops/utils/solve_tril.py":183:0), %arg1: !tt.ptr<bf16> {tt.divisibility = 16 : i32} loc("/home/zeus/miniconda3/envs/cloudspace/lib/python3.13/site-packages/fla/ops/utils/solve_tril.py":183:0), %arg2: i32 loc("/home/zeus/miniconda3/envs/cloudspace/lib/python3.13/site-packages/fla/ops/utils/solve_tril.py":183:0)) attributes {noinline = false} {
    %0 = tt.get_program_id x : i32 loc(#loc1)
    %1 = tt.get_program_id y : i32 loc(#loc2)
    %c32_i32 = arith.constant 32 : i32 loc(#loc3)
    %c32_i32_0 = arith.constant 32 : i32 loc(#loc3)
    %2 = arith.divsi %1, %c32_i32_0 : i32 loc(#loc3)
    %c32_i32_1 = arith.constant 32 : i32 loc(#loc4)
    %c32_i32_2 = arith.constant 32 : i32 loc(#loc4)
    %3 = arith.remsi %1, %c32_i32_2 : i32 loc(#loc4)
    %4 = arith.extsi %2 : i32 to i64 loc(#loc5)
    %5 = arith.extsi %arg2 : i32 to i64 loc(#loc5)
    %6 = arith.muli %4, %5 : i64 loc(#loc5)
    %c2147483647_i64 = arith.constant 2147483647 : i64 loc(#loc5)
    %c-2147483648_i64 = arith.constant -2147483648 : i64 loc(#loc5)
    %7 = arith.cmpi sle, %6, %c2147483647_i64 : i64 loc(#loc5)
    %8 = arith.cmpi sge, %6, %c-2147483648_i64 : i64 loc(#loc5)
    %9 = arith.andi %7, %8 : i1 loc(#loc5)
    %10 = arith.muli %2, %arg2 : i32 loc(#loc5)
    %11 = arith.extsi %2 : i32 to i64 loc(#loc6)
    %12 = arith.extsi %arg2 : i32 to i64 loc(#loc6)
    %13 = arith.muli %11, %12 : i64 loc(#loc6)
    %c2147483647_i64_3 = arith.constant 2147483647 : i64 loc(#loc6)
    %c-2147483648_i64_4 = arith.constant -2147483648 : i64 loc(#loc6)
    %14 = arith.cmpi sle, %13, %c2147483647_i64_3 : i64 loc(#loc6)
    %15 = arith.cmpi sge, %13, %c-2147483648_i64_4 : i64 loc(#loc6)
    %16 = arith.andi %14, %15 : i1 loc(#loc6)
    %17 = arith.muli %2, %arg2 : i32 loc(#loc6)
    %18 = arith.extsi %17 : i32 to i64 loc(#loc7)
    %19 = arith.extsi %arg2 : i32 to i64 loc(#loc7)
    %20 = arith.addi %18, %19 : i64 loc(#loc7)
    %c2147483647_i64_5 = arith.constant 2147483647 : i64 loc(#loc7)
    %c-2147483648_i64_6 = arith.constant -2147483648 : i64 loc(#loc7)
    %21 = arith.cmpi sle, %20, %c2147483647_i64_5 : i64 loc(#loc7)
    %22 = arith.cmpi sge, %20, %c-2147483648_i64_6 : i64 loc(#loc7)
    %23 = arith.andi %21, %22 : i1 loc(#loc7)
    %24 = arith.addi %17, %arg2 : i32 loc(#loc7)
    %25 = tt.make_range {end = 16 : i32, start = 0 : i32} : tensor<16xi32> loc(#loc8)
    %26 = tt.expand_dims %25 {axis = 1 : i32} : tensor<16xi32> -> tensor<16x1xi32> loc(#loc9)
    %27 = tt.expand_dims %25 {axis = 0 : i32} : tensor<16xi32> -> tensor<1x16xi32> loc(#loc10)
    %28 = tt.broadcast %26 : tensor<16x1xi32> -> tensor<16x16xi32> loc(#loc11)
    %29 = tt.broadcast %27 : tensor<1x16xi32> -> tensor<16x16xi32> loc(#loc11)
    %30 = arith.cmpi sgt, %28, %29 : tensor<16x16xi32> loc(#loc11)
    %31 = tt.expand_dims %25 {axis = 1 : i32} : tensor<16xi32> -> tensor<16x1xi32> loc(#loc12)
    %32 = tt.expand_dims %25 {axis = 0 : i32} : tensor<16xi32> -> tensor<1x16xi32> loc(#loc13)
    %33 = tt.broadcast %31 : tensor<16x1xi32> -> tensor<16x16xi32> loc(#loc14)
    %34 = tt.broadcast %32 : tensor<1x16xi32> -> tensor<16x16xi32> loc(#loc14)
    %35 = arith.cmpi eq, %33, %34 : tensor<16x16xi32> loc(#loc14)
    %c32_i32_7 = arith.constant 32 : i32 loc(#loc15)
    %c32_i32_8 = arith.constant 32 : i32 loc(#loc15)
    %36 = arith.extsi %10 : i32 to i64 loc(#loc15)
    %37 = arith.extsi %c32_i32_8 : i32 to i64 loc(#loc15)
    %38 = arith.muli %36, %37 : i64 loc(#loc15)
    %c2147483647_i64_9 = arith.constant 2147483647 : i64 loc(#loc15)
    %c-2147483648_i64_10 = arith.constant -2147483648 : i64 loc(#loc15)
    %39 = arith.cmpi sle, %38, %c2147483647_i64_9 : i64 loc(#loc15)
    %40 = arith.cmpi sge, %38, %c-2147483648_i64_10 : i64 loc(#loc15)
    %41 = arith.andi %39, %40 : i1 loc(#loc15)
    %42 = arith.muli %10, %c32_i32_8 : i32 loc(#loc15)
    %43 = arith.extsi %42 : i32 to i64 loc(#loc16)
    %44 = arith.extsi %3 : i32 to i64 loc(#loc16)
    %45 = arith.addi %43, %44 : i64 loc(#loc16)
    %c2147483647_i64_11 = arith.constant 2147483647 : i64 loc(#loc16)
    %c-2147483648_i64_12 = arith.constant -2147483648 : i64 loc(#loc16)
    %46 = arith.cmpi sle, %45, %c2147483647_i64_11 : i64 loc(#loc16)
    %47 = arith.cmpi sge, %45, %c-2147483648_i64_12 : i64 loc(#loc16)
    %48 = arith.andi %46, %47 : i1 loc(#loc16)
    %49 = arith.addi %42, %3 : i32 loc(#loc16)
    %c64_i32 = arith.constant 64 : i32 loc(#loc17)
    %c64_i32_13 = arith.constant 64 : i32 loc(#loc17)
    %50 = arith.extsi %49 : i32 to i64 loc(#loc17)
    %51 = arith.extsi %c64_i32_13 : i32 to i64 loc(#loc17)
    %52 = arith.muli %50, %51 : i64 loc(#loc17)
    %c2147483647_i64_14 = arith.constant 2147483647 : i64 loc(#loc17)
    %c-2147483648_i64_15 = arith.constant -2147483648 : i64 loc(#loc17)
    %53 = arith.cmpi sle, %52, %c2147483647_i64_14 : i64 loc(#loc17)
    %54 = arith.cmpi sge, %52, %c-2147483648_i64_15 : i64 loc(#loc17)
    %55 = arith.andi %53, %54 : i1 loc(#loc17)
    %56 = arith.muli %49, %c64_i32_13 : i32 loc(#loc17)
    %57 = tt.addptr %arg0, %56 : !tt.ptr<f32>, i32 loc(#loc18)
    %c32_i32_16 = arith.constant 32 : i32 loc(#loc19)
    %c32_i32_17 = arith.constant 32 : i32 loc(#loc19)
    %58 = arith.extsi %10 : i32 to i64 loc(#loc19)
    %59 = arith.extsi %c32_i32_17 : i32 to i64 loc(#loc19)
    %60 = arith.muli %58, %59 : i64 loc(#loc19)
    %c2147483647_i64_18 = arith.constant 2147483647 : i64 loc(#loc19)
    %c-2147483648_i64_19 = arith.constant -2147483648 : i64 loc(#loc19)
    %61 = arith.cmpi sle, %60, %c2147483647_i64_18 : i64 loc(#loc19)
    %62 = arith.cmpi sge, %60, %c-2147483648_i64_19 : i64 loc(#loc19)
    %63 = arith.andi %61, %62 : i1 loc(#loc19)
    %64 = arith.muli %10, %c32_i32_17 : i32 loc(#loc19)
    %65 = arith.extsi %64 : i32 to i64 loc(#loc20)
    %66 = arith.extsi %3 : i32 to i64 loc(#loc20)
    %67 = arith.addi %65, %66 : i64 loc(#loc20)
    %c2147483647_i64_20 = arith.constant 2147483647 : i64 loc(#loc20)
    %c-2147483648_i64_21 = arith.constant -2147483648 : i64 loc(#loc20)
    %68 = arith.cmpi sle, %67, %c2147483647_i64_20 : i64 loc(#loc20)
    %69 = arith.cmpi sge, %67, %c-2147483648_i64_21 : i64 loc(#loc20)
    %70 = arith.andi %68, %69 : i1 loc(#loc20)
    %71 = arith.addi %64, %3 : i32 loc(#loc20)
    %c64_i32_22 = arith.constant 64 : i32 loc(#loc21)
    %c64_i32_23 = arith.constant 64 : i32 loc(#loc21)
    %72 = arith.extsi %71 : i32 to i64 loc(#loc21)
    %73 = arith.extsi %c64_i32_23 : i32 to i64 loc(#loc21)
    %74 = arith.muli %72, %73 : i64 loc(#loc21)
    %c2147483647_i64_24 = arith.constant 2147483647 : i64 loc(#loc21)
    %c-2147483648_i64_25 = arith.constant -2147483648 : i64 loc(#loc21)
    %75 = arith.cmpi sle, %74, %c2147483647_i64_24 : i64 loc(#loc21)
    %76 = arith.cmpi sge, %74, %c-2147483648_i64_25 : i64 loc(#loc21)
    %77 = arith.andi %75, %76 : i1 loc(#loc21)
    %78 = arith.muli %71, %c64_i32_23 : i32 loc(#loc21)
    %79 = tt.addptr %arg1, %78 : !tt.ptr<bf16>, i32 loc(#loc22)
    %c64_i32_26 = arith.constant 64 : i32 loc(#loc23)
    %c2048_i64 = arith.constant 2048 : i64 loc(#loc23)
    %c1_i64 = arith.constant 1 : i64 loc(#loc23)
    %80 = tt.make_tensor_descriptor %57, [%arg2, %c64_i32_26], [%c2048_i64, %c1_i64] : <f32>, <tensor<16x16xf32>> loc(#loc23)
    %c64_i32_27 = arith.constant 64 : i32 loc(#loc24)
    %c2048_i64_28 = arith.constant 2048 : i64 loc(#loc24)
    %c1_i64_29 = arith.constant 1 : i64 loc(#loc24)
    %81 = tt.make_tensor_descriptor %79, [%arg2, %c64_i32_27], [%c2048_i64_28, %c1_i64_29] : <bf16>, <tensor<16x16xbf16>> loc(#loc24)
    %c64_i32_30 = arith.constant 64 : i32 loc(#loc25)
    %c64_i32_31 = arith.constant 64 : i32 loc(#loc25)
    %82 = arith.extsi %0 : i32 to i64 loc(#loc25)
    %83 = arith.extsi %c64_i32_31 : i32 to i64 loc(#loc25)
    %84 = arith.muli %82, %83 : i64 loc(#loc25)
    %c2147483647_i64_32 = arith.constant 2147483647 : i64 loc(#loc25)
    %c-2147483648_i64_33 = arith.constant -2147483648 : i64 loc(#loc25)
    %85 = arith.cmpi sle, %84, %c2147483647_i64_32 : i64 loc(#loc25)
    %86 = arith.cmpi sge, %84, %c-2147483648_i64_33 : i64 loc(#loc25)
    %87 = arith.andi %85, %86 : i1 loc(#loc25)
    %88 = arith.muli %0, %c64_i32_31 : i32 loc(#loc25)
    %c0_i32 = arith.constant 0 : i32 loc(#loc26)
    %c0_i32_34 = arith.constant 0 : i32 loc(#loc26)
    %89 = arith.extsi %88 : i32 to i64 loc(#loc26)
    %90 = arith.extsi %c0_i32_34 : i32 to i64 loc(#loc26)
    %91 = arith.addi %89, %90 : i64 loc(#loc26)
    %c2147483647_i64_35 = arith.constant 2147483647 : i64 loc(#loc26)
    %c-2147483648_i64_36 = arith.constant -2147483648 : i64 loc(#loc26)
    %92 = arith.cmpi sle, %91, %c2147483647_i64_35 : i64 loc(#loc26)
    %93 = arith.cmpi sge, %91, %c-2147483648_i64_36 : i64 loc(#loc26)
    %94 = arith.andi %92, %93 : i1 loc(#loc26)
    %95 = arith.addi %88, %c0_i32_34 : i32 loc(#loc26)
    %c0_i32_37 = arith.constant 0 : i32 loc(#loc27)
    %96 = tt.descriptor_load %80[%95, %c0_i32_37] : !tt.tensordesc<tensor<16x16xf32>> -> tensor<16x16xf32> loc(#loc27)
    %c64_i32_38 = arith.constant 64 : i32 loc(#loc28)
    %c64_i32_39 = arith.constant 64 : i32 loc(#loc28)
    %97 = arith.extsi %0 : i32 to i64 loc(#loc28)
    %98 = arith.extsi %c64_i32_39 : i32 to i64 loc(#loc28)
    %99 = arith.muli %97, %98 : i64 loc(#loc28)
    %c2147483647_i64_40 = arith.constant 2147483647 : i64 loc(#loc28)
    %c-2147483648_i64_41 = arith.constant -2147483648 : i64 loc(#loc28)
    %100 = arith.cmpi sle, %99, %c2147483647_i64_40 : i64 loc(#loc28)
    %101 = arith.cmpi sge, %99, %c-2147483648_i64_41 : i64 loc(#loc28)
    %102 = arith.andi %100, %101 : i1 loc(#loc28)
    %103 = arith.muli %0, %c64_i32_39 : i32 loc(#loc28)
    %c16_i32 = arith.constant 16 : i32 loc(#loc29)
    %c16_i32_42 = arith.constant 16 : i32 loc(#loc29)
    %104 = arith.extsi %103 : i32 to i64 loc(#loc29)
    %105 = arith.extsi %c16_i32_42 : i32 to i64 loc(#loc29)
    %106 = arith.addi %104, %105 : i64 loc(#loc29)
    %c2147483647_i64_43 = arith.constant 2147483647 : i64 loc(#loc29)
    %c-2147483648_i64_44 = arith.constant -2147483648 : i64 loc(#loc29)
    %107 = arith.cmpi sle, %106, %c2147483647_i64_43 : i64 loc(#loc29)
    %108 = arith.cmpi sge, %106, %c-2147483648_i64_44 : i64 loc(#loc29)
    %109 = arith.andi %107, %108 : i1 loc(#loc29)
    %110 = arith.addi %103, %c16_i32_42 : i32 loc(#loc29)
    %c16_i32_45 = arith.constant 16 : i32 loc(#loc30)
    %111 = tt.descriptor_load %80[%110, %c16_i32_45] : !tt.tensordesc<tensor<16x16xf32>> -> tensor<16x16xf32> loc(#loc30)
    %c64_i32_46 = arith.constant 64 : i32 loc(#loc31)
    %c64_i32_47 = arith.constant 64 : i32 loc(#loc31)
    %112 = arith.extsi %0 : i32 to i64 loc(#loc31)
    %113 = arith.extsi %c64_i32_47 : i32 to i64 loc(#loc31)
    %114 = arith.muli %112, %113 : i64 loc(#loc31)
    %c2147483647_i64_48 = arith.constant 2147483647 : i64 loc(#loc31)
    %c-2147483648_i64_49 = arith.constant -2147483648 : i64 loc(#loc31)
    %115 = arith.cmpi sle, %114, %c2147483647_i64_48 : i64 loc(#loc31)
    %116 = arith.cmpi sge, %114, %c-2147483648_i64_49 : i64 loc(#loc31)
    %117 = arith.andi %115, %116 : i1 loc(#loc31)
    %118 = arith.muli %0, %c64_i32_47 : i32 loc(#loc31)
    %c32_i32_50 = arith.constant 32 : i32 loc(#loc32)
    %c32_i32_51 = arith.constant 32 : i32 loc(#loc32)
    %119 = arith.extsi %118 : i32 to i64 loc(#loc32)
    %120 = arith.extsi %c32_i32_51 : i32 to i64 loc(#loc32)
    %121 = arith.addi %119, %120 : i64 loc(#loc32)
    %c2147483647_i64_52 = arith.constant 2147483647 : i64 loc(#loc32)
    %c-2147483648_i64_53 = arith.constant -2147483648 : i64 loc(#loc32)
    %122 = arith.cmpi sle, %121, %c2147483647_i64_52 : i64 loc(#loc32)
    %123 = arith.cmpi sge, %121, %c-2147483648_i64_53 : i64 loc(#loc32)
    %124 = arith.andi %122, %123 : i1 loc(#loc32)
    %125 = arith.addi %118, %c32_i32_51 : i32 loc(#loc32)
    %c32_i32_54 = arith.constant 32 : i32 loc(#loc33)
    %126 = tt.descriptor_load %80[%125, %c32_i32_54] : !tt.tensordesc<tensor<16x16xf32>> -> tensor<16x16xf32> loc(#loc33)
    %c64_i32_55 = arith.constant 64 : i32 loc(#loc34)
    %c64_i32_56 = arith.constant 64 : i32 loc(#loc34)
    %127 = arith.extsi %0 : i32 to i64 loc(#loc34)
    %128 = arith.extsi %c64_i32_56 : i32 to i64 loc(#loc34)
    %129 = arith.muli %127, %128 : i64 loc(#loc34)
    %c2147483647_i64_57 = arith.constant 2147483647 : i64 loc(#loc34)
    %c-2147483648_i64_58 = arith.constant -2147483648 : i64 loc(#loc34)
    %130 = arith.cmpi sle, %129, %c2147483647_i64_57 : i64 loc(#loc34)
    %131 = arith.cmpi sge, %129, %c-2147483648_i64_58 : i64 loc(#loc34)
    %132 = arith.andi %130, %131 : i1 loc(#loc34)
    %133 = arith.muli %0, %c64_i32_56 : i32 loc(#loc34)
    %c48_i32 = arith.constant 48 : i32 loc(#loc35)
    %c48_i32_59 = arith.constant 48 : i32 loc(#loc35)
    %134 = arith.extsi %133 : i32 to i64 loc(#loc35)
    %135 = arith.extsi %c48_i32_59 : i32 to i64 loc(#loc35)
    %136 = arith.addi %134, %135 : i64 loc(#loc35)
    %c2147483647_i64_60 = arith.constant 2147483647 : i64 loc(#loc35)
    %c-2147483648_i64_61 = arith.constant -2147483648 : i64 loc(#loc35)
    %137 = arith.cmpi sle, %136, %c2147483647_i64_60 : i64 loc(#loc35)
    %138 = arith.cmpi sge, %136, %c-2147483648_i64_61 : i64 loc(#loc35)
    %139 = arith.andi %137, %138 : i1 loc(#loc35)
    %140 = arith.addi %133, %c48_i32_59 : i32 loc(#loc35)
    %c48_i32_62 = arith.constant 48 : i32 loc(#loc36)
    %141 = tt.descriptor_load %80[%140, %c48_i32_62] : !tt.tensordesc<tensor<16x16xf32>> -> tensor<16x16xf32> loc(#loc36)
    %c0_i32_63 = arith.constant 0 : i32 loc(#loc37)
    %cst = arith.constant 0.000000e+00 : f32 loc(#loc37)
    %cst_64 = arith.constant dense<0.000000e+00> : tensor<16x16xf32> loc(#loc37)
    %142 = arith.select %30, %96, %cst_64 : tensor<16x16xi1>, tensor<16x16xf32> loc(#loc37)
    %cst_65 = arith.constant 0.000000e+00 : f32 loc(#loc38)
    %cst_66 = arith.constant dense<0.000000e+00> : tensor<16x16xf32> loc(#loc38)
    %143 = arith.subf %cst_66, %142 : tensor<16x16xf32> loc(#loc38)
    %c0_i32_67 = arith.constant 0 : i32 loc(#loc39)
    %cst_68 = arith.constant 0.000000e+00 : f32 loc(#loc39)
    %cst_69 = arith.constant dense<0.000000e+00> : tensor<16x16xf32> loc(#loc39)
    %144 = arith.select %30, %111, %cst_69 : tensor<16x16xi1>, tensor<16x16xf32> loc(#loc39)
    %cst_70 = arith.constant 0.000000e+00 : f32 loc(#loc40)
    %cst_71 = arith.constant dense<0.000000e+00> : tensor<16x16xf32> loc(#loc40)
    %145 = arith.subf %cst_71, %144 : tensor<16x16xf32> loc(#loc40)
    %c0_i32_72 = arith.constant 0 : i32 loc(#loc41)
    %cst_73 = arith.constant 0.000000e+00 : f32 loc(#loc41)
    %cst_74 = arith.constant dense<0.000000e+00> : tensor<16x16xf32> loc(#loc41)
    %146 = arith.select %30, %126, %cst_74 : tensor<16x16xi1>, tensor<16x16xf32> loc(#loc41)
    %cst_75 = arith.constant 0.000000e+00 : f32 loc(#loc42)
    %cst_76 = arith.constant dense<0.000000e+00> : tensor<16x16xf32> loc(#loc42)
    %147 = arith.subf %cst_76, %146 : tensor<16x16xf32> loc(#loc42)
    %c0_i32_77 = arith.constant 0 : i32 loc(#loc43)
    %cst_78 = arith.constant 0.000000e+00 : f32 loc(#loc43)
    %cst_79 = arith.constant dense<0.000000e+00> : tensor<16x16xf32> loc(#loc43)
    %148 = arith.select %30, %141, %cst_79 : tensor<16x16xi1>, tensor<16x16xf32> loc(#loc43)
    %cst_80 = arith.constant 0.000000e+00 : f32 loc(#loc44)
    %cst_81 = arith.constant dense<0.000000e+00> : tensor<16x16xf32> loc(#loc44)
    %149 = arith.subf %cst_81, %148 : tensor<16x16xf32> loc(#loc44)
    %c64_i32_82 = arith.constant 64 : i32 loc(#loc45)
    %c64_i32_83 = arith.constant 64 : i32 loc(#loc45)
    %150 = arith.extsi %0 : i32 to i64 loc(#loc45)
    %151 = arith.extsi %c64_i32_83 : i32 to i64 loc(#loc45)
    %152 = arith.muli %150, %151 : i64 loc(#loc45)
    %c2147483647_i64_84 = arith.constant 2147483647 : i64 loc(#loc45)
    %c-2147483648_i64_85 = arith.constant -2147483648 : i64 loc(#loc45)
    %153 = arith.cmpi sle, %152, %c2147483647_i64_84 : i64 loc(#loc45)
    %154 = arith.cmpi sge, %152, %c-2147483648_i64_85 : i64 loc(#loc45)
    %155 = arith.andi %153, %154 : i1 loc(#loc45)
    %156 = arith.muli %0, %c64_i32_83 : i32 loc(#loc45)
    %157 = arith.extsi %arg2 : i32 to i64 loc(#loc46)
    %158 = arith.extsi %156 : i32 to i64 loc(#loc46)
    %159 = arith.subi %157, %158 : i64 loc(#loc46)
    %c2147483647_i64_86 = arith.constant 2147483647 : i64 loc(#loc46)
    %c-2147483648_i64_87 = arith.constant -2147483648 : i64 loc(#loc46)
    %160 = arith.cmpi sle, %159, %c2147483647_i64_86 : i64 loc(#loc46)
    %161 = arith.cmpi sge, %159, %c-2147483648_i64_87 : i64 loc(#loc46)
    %162 = arith.andi %160, %161 : i1 loc(#loc46)
    %163 = arith.subi %arg2, %156 : i32 loc(#loc46)
    %c16_i32_88 = arith.constant 16 : i32 loc(#loc47)
    %164 = arith.minsi %c16_i32_88, %163 : i32 loc(#loc47)
    %c2_i32 = arith.constant 2 : i32 loc(#loc48)
    %c1_i32 = arith.constant 1 : i32 loc(#loc48)
    %165 = arith.bitcast %c2_i32 : i32 to i32 loc(#loc48)
    %166 = arith.bitcast %164 : i32 to i32 loc(#loc48)
    %167 = arith.bitcast %c1_i32 : i32 to i32 loc(#loc48)
    %168 = ub.poison : i32 loc(#loc48)
    %169 = scf.for %arg3 = %165 to %166 step %167 iter_args(%arg4 = %143) -> (tensor<16x16xf32>)  : i32 {
      %c64_i32_301 = arith.constant 64 : i32 loc(#loc49)
      %c64_i32_302 = arith.constant 64 : i32 loc(#loc49)
      %504 = arith.extsi %0 : i32 to i64 loc(#loc49)
      %505 = arith.extsi %c64_i32_302 : i32 to i64 loc(#loc49)
      %506 = arith.muli %504, %505 : i64 loc(#loc49)
      %c2147483647_i64_303 = arith.constant 2147483647 : i64 loc(#loc49)
      %c-2147483648_i64_304 = arith.constant -2147483648 : i64 loc(#loc49)
      %507 = arith.cmpi sle, %506, %c2147483647_i64_303 : i64 loc(#loc49)
      %508 = arith.cmpi sge, %506, %c-2147483648_i64_304 : i64 loc(#loc49)
      %509 = arith.andi %507, %508 : i1 loc(#loc49)
      %510 = arith.muli %0, %c64_i32_302 : i32 loc(#loc49)
      %511 = arith.extsi %510 : i32 to i64 loc(#loc50)
      %512 = arith.extsi %arg3 : i32 to i64 loc(#loc50)
      %513 = arith.addi %511, %512 : i64 loc(#loc50)
      %c2147483647_i64_305 = arith.constant 2147483647 : i64 loc(#loc50)
      %c-2147483648_i64_306 = arith.constant -2147483648 : i64 loc(#loc50)
      %514 = arith.cmpi sle, %513, %c2147483647_i64_305 : i64 loc(#loc50)
      %515 = arith.cmpi sge, %513, %c-2147483648_i64_306 : i64 loc(#loc50)
      %516 = arith.andi %514, %515 : i1 loc(#loc50)
      %517 = arith.addi %510, %arg3 : i32 loc(#loc50)
      %c32_i32_307 = arith.constant 32 : i32 loc(#loc51)
      %c32_i32_308 = arith.constant 32 : i32 loc(#loc51)
      %518 = arith.extsi %517 : i32 to i64 loc(#loc51)
      %519 = arith.extsi %c32_i32_308 : i32 to i64 loc(#loc51)
      %520 = arith.muli %518, %519 : i64 loc(#loc51)
      %c2147483647_i64_309 = arith.constant 2147483647 : i64 loc(#loc51)
      %c-2147483648_i64_310 = arith.constant -2147483648 : i64 loc(#loc51)
      %521 = arith.cmpi sle, %520, %c2147483647_i64_309 : i64 loc(#loc51)
      %522 = arith.cmpi sge, %520, %c-2147483648_i64_310 : i64 loc(#loc51)
      %523 = arith.andi %521, %522 : i1 loc(#loc51)
      %524 = arith.muli %517, %c32_i32_308 : i32 loc(#loc51)
      %c64_i32_311 = arith.constant 64 : i32 loc(#loc52)
      %c64_i32_312 = arith.constant 64 : i32 loc(#loc52)
      %525 = arith.extsi %524 : i32 to i64 loc(#loc52)
      %526 = arith.extsi %c64_i32_312 : i32 to i64 loc(#loc52)
      %527 = arith.muli %525, %526 : i64 loc(#loc52)
      %c2147483647_i64_313 = arith.constant 2147483647 : i64 loc(#loc52)
      %c-2147483648_i64_314 = arith.constant -2147483648 : i64 loc(#loc52)
      %528 = arith.cmpi sle, %527, %c2147483647_i64_313 : i64 loc(#loc52)
      %529 = arith.cmpi sge, %527, %c-2147483648_i64_314 : i64 loc(#loc52)
      %530 = arith.andi %528, %529 : i1 loc(#loc52)
      %531 = arith.muli %524, %c64_i32_312 : i32 loc(#loc52)
      %532 = tt.addptr %57, %531 : !tt.ptr<f32>, i32 loc(#loc53)
      %533 = tt.splat %532 : !tt.ptr<f32> -> tensor<16x!tt.ptr<f32>> loc(#loc54)
      %534 = tt.addptr %533, %25 : tensor<16x!tt.ptr<f32>>, tensor<16xi32> loc(#loc54)
      %535 = tt.load %534 : tensor<16x!tt.ptr<f32>> loc(#loc55)
      %cst_315 = arith.constant 0.000000e+00 : f32 loc(#loc56)
      %cst_316 = arith.constant dense<0.000000e+00> : tensor<16xf32> loc(#loc56)
      %536 = arith.subf %cst_316, %535 : tensor<16xf32> loc(#loc56)
      %537 = tt.expand_dims %536 {axis = 1 : i32} : tensor<16xf32> -> tensor<16x1xf32> loc(#loc57)
      %538 = tt.broadcast %537 : tensor<16x1xf32> -> tensor<16x16xf32> loc(#loc58)
      %539 = arith.mulf %538, %arg4 : tensor<16x16xf32> loc(#loc58)
      %540 = tt.call @"triton.language.standard.sum__fp32S16_16S__(1,)cconstexpr_0__(2,)cconstexpr_False__(3,)cNone"(%539) : (tensor<16x16xf32>) -> tensor<16xf32> loc(#loc59)
      %541 = arith.addf %536, %540 : tensor<16xf32> loc(#loc60)
      %542 = tt.splat %arg3 : i32 -> tensor<16xi32> loc(#loc61)
      %543 = arith.cmpi eq, %25, %542 : tensor<16xi32> loc(#loc61)
      %544 = tt.expand_dims %543 {axis = 1 : i32} : tensor<16xi1> -> tensor<16x1xi1> loc(#loc62)
      %545 = tt.expand_dims %541 {axis = 0 : i32} : tensor<16xf32> -> tensor<1x16xf32> loc(#loc63)
      %546 = tt.broadcast %545 : tensor<1x16xf32> -> tensor<16x16xf32> loc(#loc63)
      %547 = tt.broadcast %544 : tensor<16x1xi1> -> tensor<16x16xi1> loc(#loc63)
      %548 = arith.select %547, %546, %arg4 : tensor<16x16xi1>, tensor<16x16xf32> loc(#loc63)
      scf.yield %548 : tensor<16x16xf32> loc(#loc64)
    } loc(#loc48)
    %c64_i32_89 = arith.constant 64 : i32 loc(#loc65)
    %c64_i32_90 = arith.constant 64 : i32 loc(#loc65)
    %170 = arith.extsi %0 : i32 to i64 loc(#loc65)
    %171 = arith.extsi %c64_i32_90 : i32 to i64 loc(#loc65)
    %172 = arith.muli %170, %171 : i64 loc(#loc65)
    %c2147483647_i64_91 = arith.constant 2147483647 : i64 loc(#loc65)
    %c-2147483648_i64_92 = arith.constant -2147483648 : i64 loc(#loc65)
    %173 = arith.cmpi sle, %172, %c2147483647_i64_91 : i64 loc(#loc65)
    %174 = arith.cmpi sge, %172, %c-2147483648_i64_92 : i64 loc(#loc65)
    %175 = arith.andi %173, %174 : i1 loc(#loc65)
    %176 = arith.muli %0, %c64_i32_90 : i32 loc(#loc65)
    %177 = arith.extsi %arg2 : i32 to i64 loc(#loc66)
    %178 = arith.extsi %176 : i32 to i64 loc(#loc66)
    %179 = arith.subi %177, %178 : i64 loc(#loc66)
    %c2147483647_i64_93 = arith.constant 2147483647 : i64 loc(#loc66)
    %c-2147483648_i64_94 = arith.constant -2147483648 : i64 loc(#loc66)
    %180 = arith.cmpi sle, %179, %c2147483647_i64_93 : i64 loc(#loc66)
    %181 = arith.cmpi sge, %179, %c-2147483648_i64_94 : i64 loc(#loc66)
    %182 = arith.andi %180, %181 : i1 loc(#loc66)
    %183 = arith.subi %arg2, %176 : i32 loc(#loc66)
    %c32_i32_95 = arith.constant 32 : i32 loc(#loc67)
    %184 = arith.minsi %c32_i32_95, %183 : i32 loc(#loc67)
    %c18_i32 = arith.constant 18 : i32 loc(#loc68)
    %c1_i32_96 = arith.constant 1 : i32 loc(#loc68)
    %185 = arith.bitcast %c18_i32 : i32 to i32 loc(#loc68)
    %186 = arith.bitcast %184 : i32 to i32 loc(#loc68)
    %187 = arith.bitcast %c1_i32_96 : i32 to i32 loc(#loc68)
    %188 = ub.poison : i32 loc(#loc68)
    %189 = scf.for %arg3 = %185 to %186 step %187 iter_args(%arg4 = %145) -> (tensor<16x16xf32>)  : i32 {
      %c64_i32_301 = arith.constant 64 : i32 loc(#loc69)
      %c64_i32_302 = arith.constant 64 : i32 loc(#loc69)
      %504 = arith.extsi %0 : i32 to i64 loc(#loc69)
      %505 = arith.extsi %c64_i32_302 : i32 to i64 loc(#loc69)
      %506 = arith.muli %504, %505 : i64 loc(#loc69)
      %c2147483647_i64_303 = arith.constant 2147483647 : i64 loc(#loc69)
      %c-2147483648_i64_304 = arith.constant -2147483648 : i64 loc(#loc69)
      %507 = arith.cmpi sle, %506, %c2147483647_i64_303 : i64 loc(#loc69)
      %508 = arith.cmpi sge, %506, %c-2147483648_i64_304 : i64 loc(#loc69)
      %509 = arith.andi %507, %508 : i1 loc(#loc69)
      %510 = arith.muli %0, %c64_i32_302 : i32 loc(#loc69)
      %511 = arith.extsi %510 : i32 to i64 loc(#loc70)
      %512 = arith.extsi %arg3 : i32 to i64 loc(#loc70)
      %513 = arith.addi %511, %512 : i64 loc(#loc70)
      %c2147483647_i64_305 = arith.constant 2147483647 : i64 loc(#loc70)
      %c-2147483648_i64_306 = arith.constant -2147483648 : i64 loc(#loc70)
      %514 = arith.cmpi sle, %513, %c2147483647_i64_305 : i64 loc(#loc70)
      %515 = arith.cmpi sge, %513, %c-2147483648_i64_306 : i64 loc(#loc70)
      %516 = arith.andi %514, %515 : i1 loc(#loc70)
      %517 = arith.addi %510, %arg3 : i32 loc(#loc70)
      %c32_i32_307 = arith.constant 32 : i32 loc(#loc71)
      %c32_i32_308 = arith.constant 32 : i32 loc(#loc71)
      %518 = arith.extsi %517 : i32 to i64 loc(#loc71)
      %519 = arith.extsi %c32_i32_308 : i32 to i64 loc(#loc71)
      %520 = arith.muli %518, %519 : i64 loc(#loc71)
      %c2147483647_i64_309 = arith.constant 2147483647 : i64 loc(#loc71)
      %c-2147483648_i64_310 = arith.constant -2147483648 : i64 loc(#loc71)
      %521 = arith.cmpi sle, %520, %c2147483647_i64_309 : i64 loc(#loc71)
      %522 = arith.cmpi sge, %520, %c-2147483648_i64_310 : i64 loc(#loc71)
      %523 = arith.andi %521, %522 : i1 loc(#loc71)
      %524 = arith.muli %517, %c32_i32_308 : i32 loc(#loc71)
      %c64_i32_311 = arith.constant 64 : i32 loc(#loc72)
      %c64_i32_312 = arith.constant 64 : i32 loc(#loc72)
      %525 = arith.extsi %524 : i32 to i64 loc(#loc72)
      %526 = arith.extsi %c64_i32_312 : i32 to i64 loc(#loc72)
      %527 = arith.muli %525, %526 : i64 loc(#loc72)
      %c2147483647_i64_313 = arith.constant 2147483647 : i64 loc(#loc72)
      %c-2147483648_i64_314 = arith.constant -2147483648 : i64 loc(#loc72)
      %528 = arith.cmpi sle, %527, %c2147483647_i64_313 : i64 loc(#loc72)
      %529 = arith.cmpi sge, %527, %c-2147483648_i64_314 : i64 loc(#loc72)
      %530 = arith.andi %528, %529 : i1 loc(#loc72)
      %531 = arith.muli %524, %c64_i32_312 : i32 loc(#loc72)
      %532 = tt.addptr %57, %531 : !tt.ptr<f32>, i32 loc(#loc73)
      %533 = tt.splat %532 : !tt.ptr<f32> -> tensor<16x!tt.ptr<f32>> loc(#loc74)
      %534 = tt.addptr %533, %25 : tensor<16x!tt.ptr<f32>>, tensor<16xi32> loc(#loc74)
      %c16_i32_315 = arith.constant 16 : i32 loc(#loc75)
      %cst_316 = arith.constant dense<16> : tensor<16xi32> loc(#loc75)
      %535 = tt.addptr %534, %cst_316 : tensor<16x!tt.ptr<f32>>, tensor<16xi32> loc(#loc75)
      %536 = tt.load %535 : tensor<16x!tt.ptr<f32>> loc(#loc76)
      %cst_317 = arith.constant 0.000000e+00 : f32 loc(#loc77)
      %cst_318 = arith.constant dense<0.000000e+00> : tensor<16xf32> loc(#loc77)
      %537 = arith.subf %cst_318, %536 : tensor<16xf32> loc(#loc77)
      %538 = tt.expand_dims %537 {axis = 1 : i32} : tensor<16xf32> -> tensor<16x1xf32> loc(#loc78)
      %539 = tt.broadcast %538 : tensor<16x1xf32> -> tensor<16x16xf32> loc(#loc79)
      %540 = arith.mulf %539, %arg4 : tensor<16x16xf32> loc(#loc79)
      %541 = tt.call @"triton.language.standard.sum__fp32S16_16S__(1,)cconstexpr_0__(2,)cconstexpr_False__(3,)cNone"(%540) : (tensor<16x16xf32>) -> tensor<16xf32> loc(#loc80)
      %542 = arith.addf %537, %541 : tensor<16xf32> loc(#loc81)
      %c16_i32_319 = arith.constant 16 : i32 loc(#loc82)
      %c16_i32_320 = arith.constant 16 : i32 loc(#loc82)
      %543 = arith.extsi %arg3 : i32 to i64 loc(#loc82)
      %544 = arith.extsi %c16_i32_320 : i32 to i64 loc(#loc82)
      %545 = arith.subi %543, %544 : i64 loc(#loc82)
      %c2147483647_i64_321 = arith.constant 2147483647 : i64 loc(#loc82)
      %c-2147483648_i64_322 = arith.constant -2147483648 : i64 loc(#loc82)
      %546 = arith.cmpi sle, %545, %c2147483647_i64_321 : i64 loc(#loc82)
      %547 = arith.cmpi sge, %545, %c-2147483648_i64_322 : i64 loc(#loc82)
      %548 = arith.andi %546, %547 : i1 loc(#loc82)
      %549 = arith.subi %arg3, %c16_i32_320 : i32 loc(#loc82)
      %550 = tt.splat %549 : i32 -> tensor<16xi32> loc(#loc83)
      %551 = arith.cmpi eq, %25, %550 : tensor<16xi32> loc(#loc83)
      %552 = tt.expand_dims %551 {axis = 1 : i32} : tensor<16xi1> -> tensor<16x1xi1> loc(#loc84)
      %553 = tt.expand_dims %542 {axis = 0 : i32} : tensor<16xf32> -> tensor<1x16xf32> loc(#loc85)
      %554 = tt.broadcast %553 : tensor<1x16xf32> -> tensor<16x16xf32> loc(#loc85)
      %555 = tt.broadcast %552 : tensor<16x1xi1> -> tensor<16x16xi1> loc(#loc85)
      %556 = arith.select %555, %554, %arg4 : tensor<16x16xi1>, tensor<16x16xf32> loc(#loc85)
      scf.yield %556 : tensor<16x16xf32> loc(#loc86)
    } loc(#loc68)
    %c64_i32_97 = arith.constant 64 : i32 loc(#loc87)
    %c64_i32_98 = arith.constant 64 : i32 loc(#loc87)
    %190 = arith.extsi %0 : i32 to i64 loc(#loc87)
    %191 = arith.extsi %c64_i32_98 : i32 to i64 loc(#loc87)
    %192 = arith.muli %190, %191 : i64 loc(#loc87)
    %c2147483647_i64_99 = arith.constant 2147483647 : i64 loc(#loc87)
    %c-2147483648_i64_100 = arith.constant -2147483648 : i64 loc(#loc87)
    %193 = arith.cmpi sle, %192, %c2147483647_i64_99 : i64 loc(#loc87)
    %194 = arith.cmpi sge, %192, %c-2147483648_i64_100 : i64 loc(#loc87)
    %195 = arith.andi %193, %194 : i1 loc(#loc87)
    %196 = arith.muli %0, %c64_i32_98 : i32 loc(#loc87)
    %197 = arith.extsi %arg2 : i32 to i64 loc(#loc88)
    %198 = arith.extsi %196 : i32 to i64 loc(#loc88)
    %199 = arith.subi %197, %198 : i64 loc(#loc88)
    %c2147483647_i64_101 = arith.constant 2147483647 : i64 loc(#loc88)
    %c-2147483648_i64_102 = arith.constant -2147483648 : i64 loc(#loc88)
    %200 = arith.cmpi sle, %199, %c2147483647_i64_101 : i64 loc(#loc88)
    %201 = arith.cmpi sge, %199, %c-2147483648_i64_102 : i64 loc(#loc88)
    %202 = arith.andi %200, %201 : i1 loc(#loc88)
    %203 = arith.subi %arg2, %196 : i32 loc(#loc88)
    %c48_i32_103 = arith.constant 48 : i32 loc(#loc89)
    %204 = arith.minsi %c48_i32_103, %203 : i32 loc(#loc89)
    %c34_i32 = arith.constant 34 : i32 loc(#loc90)
    %c1_i32_104 = arith.constant 1 : i32 loc(#loc90)
    %205 = arith.bitcast %c34_i32 : i32 to i32 loc(#loc90)
    %206 = arith.bitcast %204 : i32 to i32 loc(#loc90)
    %207 = arith.bitcast %c1_i32_104 : i32 to i32 loc(#loc90)
    %208 = ub.poison : i32 loc(#loc90)
    %209 = scf.for %arg3 = %205 to %206 step %207 iter_args(%arg4 = %147) -> (tensor<16x16xf32>)  : i32 {
      %c64_i32_301 = arith.constant 64 : i32 loc(#loc91)
      %c64_i32_302 = arith.constant 64 : i32 loc(#loc91)
      %504 = arith.extsi %0 : i32 to i64 loc(#loc91)
      %505 = arith.extsi %c64_i32_302 : i32 to i64 loc(#loc91)
      %506 = arith.muli %504, %505 : i64 loc(#loc91)
      %c2147483647_i64_303 = arith.constant 2147483647 : i64 loc(#loc91)
      %c-2147483648_i64_304 = arith.constant -2147483648 : i64 loc(#loc91)
      %507 = arith.cmpi sle, %506, %c2147483647_i64_303 : i64 loc(#loc91)
      %508 = arith.cmpi sge, %506, %c-2147483648_i64_304 : i64 loc(#loc91)
      %509 = arith.andi %507, %508 : i1 loc(#loc91)
      %510 = arith.muli %0, %c64_i32_302 : i32 loc(#loc91)
      %511 = arith.extsi %510 : i32 to i64 loc(#loc92)
      %512 = arith.extsi %arg3 : i32 to i64 loc(#loc92)
      %513 = arith.addi %511, %512 : i64 loc(#loc92)
      %c2147483647_i64_305 = arith.constant 2147483647 : i64 loc(#loc92)
      %c-2147483648_i64_306 = arith.constant -2147483648 : i64 loc(#loc92)
      %514 = arith.cmpi sle, %513, %c2147483647_i64_305 : i64 loc(#loc92)
      %515 = arith.cmpi sge, %513, %c-2147483648_i64_306 : i64 loc(#loc92)
      %516 = arith.andi %514, %515 : i1 loc(#loc92)
      %517 = arith.addi %510, %arg3 : i32 loc(#loc92)
      %c32_i32_307 = arith.constant 32 : i32 loc(#loc93)
      %c32_i32_308 = arith.constant 32 : i32 loc(#loc93)
      %518 = arith.extsi %517 : i32 to i64 loc(#loc93)
      %519 = arith.extsi %c32_i32_308 : i32 to i64 loc(#loc93)
      %520 = arith.muli %518, %519 : i64 loc(#loc93)
      %c2147483647_i64_309 = arith.constant 2147483647 : i64 loc(#loc93)
      %c-2147483648_i64_310 = arith.constant -2147483648 : i64 loc(#loc93)
      %521 = arith.cmpi sle, %520, %c2147483647_i64_309 : i64 loc(#loc93)
      %522 = arith.cmpi sge, %520, %c-2147483648_i64_310 : i64 loc(#loc93)
      %523 = arith.andi %521, %522 : i1 loc(#loc93)
      %524 = arith.muli %517, %c32_i32_308 : i32 loc(#loc93)
      %c64_i32_311 = arith.constant 64 : i32 loc(#loc94)
      %c64_i32_312 = arith.constant 64 : i32 loc(#loc94)
      %525 = arith.extsi %524 : i32 to i64 loc(#loc94)
      %526 = arith.extsi %c64_i32_312 : i32 to i64 loc(#loc94)
      %527 = arith.muli %525, %526 : i64 loc(#loc94)
      %c2147483647_i64_313 = arith.constant 2147483647 : i64 loc(#loc94)
      %c-2147483648_i64_314 = arith.constant -2147483648 : i64 loc(#loc94)
      %528 = arith.cmpi sle, %527, %c2147483647_i64_313 : i64 loc(#loc94)
      %529 = arith.cmpi sge, %527, %c-2147483648_i64_314 : i64 loc(#loc94)
      %530 = arith.andi %528, %529 : i1 loc(#loc94)
      %531 = arith.muli %524, %c64_i32_312 : i32 loc(#loc94)
      %532 = tt.addptr %57, %531 : !tt.ptr<f32>, i32 loc(#loc95)
      %533 = tt.splat %532 : !tt.ptr<f32> -> tensor<16x!tt.ptr<f32>> loc(#loc96)
      %534 = tt.addptr %533, %25 : tensor<16x!tt.ptr<f32>>, tensor<16xi32> loc(#loc96)
      %c32_i32_315 = arith.constant 32 : i32 loc(#loc97)
      %cst_316 = arith.constant dense<32> : tensor<16xi32> loc(#loc97)
      %535 = tt.addptr %534, %cst_316 : tensor<16x!tt.ptr<f32>>, tensor<16xi32> loc(#loc97)
      %536 = tt.load %535 : tensor<16x!tt.ptr<f32>> loc(#loc98)
      %cst_317 = arith.constant 0.000000e+00 : f32 loc(#loc99)
      %cst_318 = arith.constant dense<0.000000e+00> : tensor<16xf32> loc(#loc99)
      %537 = arith.subf %cst_318, %536 : tensor<16xf32> loc(#loc99)
      %538 = tt.expand_dims %537 {axis = 1 : i32} : tensor<16xf32> -> tensor<16x1xf32> loc(#loc100)
      %539 = tt.broadcast %538 : tensor<16x1xf32> -> tensor<16x16xf32> loc(#loc101)
      %540 = arith.mulf %539, %arg4 : tensor<16x16xf32> loc(#loc101)
      %541 = tt.call @"triton.language.standard.sum__fp32S16_16S__(1,)cconstexpr_0__(2,)cconstexpr_False__(3,)cNone"(%540) : (tensor<16x16xf32>) -> tensor<16xf32> loc(#loc102)
      %542 = arith.addf %537, %541 : tensor<16xf32> loc(#loc103)
      %c32_i32_319 = arith.constant 32 : i32 loc(#loc104)
      %c32_i32_320 = arith.constant 32 : i32 loc(#loc104)
      %543 = arith.extsi %arg3 : i32 to i64 loc(#loc104)
      %544 = arith.extsi %c32_i32_320 : i32 to i64 loc(#loc104)
      %545 = arith.subi %543, %544 : i64 loc(#loc104)
      %c2147483647_i64_321 = arith.constant 2147483647 : i64 loc(#loc104)
      %c-2147483648_i64_322 = arith.constant -2147483648 : i64 loc(#loc104)
      %546 = arith.cmpi sle, %545, %c2147483647_i64_321 : i64 loc(#loc104)
      %547 = arith.cmpi sge, %545, %c-2147483648_i64_322 : i64 loc(#loc104)
      %548 = arith.andi %546, %547 : i1 loc(#loc104)
      %549 = arith.subi %arg3, %c32_i32_320 : i32 loc(#loc104)
      %550 = tt.splat %549 : i32 -> tensor<16xi32> loc(#loc105)
      %551 = arith.cmpi eq, %25, %550 : tensor<16xi32> loc(#loc105)
      %552 = tt.expand_dims %551 {axis = 1 : i32} : tensor<16xi1> -> tensor<16x1xi1> loc(#loc106)
      %553 = tt.expand_dims %542 {axis = 0 : i32} : tensor<16xf32> -> tensor<1x16xf32> loc(#loc107)
      %554 = tt.broadcast %553 : tensor<1x16xf32> -> tensor<16x16xf32> loc(#loc107)
      %555 = tt.broadcast %552 : tensor<16x1xi1> -> tensor<16x16xi1> loc(#loc107)
      %556 = arith.select %555, %554, %arg4 : tensor<16x16xi1>, tensor<16x16xf32> loc(#loc107)
      scf.yield %556 : tensor<16x16xf32> loc(#loc108)
    } loc(#loc90)
    %c64_i32_105 = arith.constant 64 : i32 loc(#loc109)
    %c64_i32_106 = arith.constant 64 : i32 loc(#loc109)
    %210 = arith.extsi %0 : i32 to i64 loc(#loc109)
    %211 = arith.extsi %c64_i32_106 : i32 to i64 loc(#loc109)
    %212 = arith.muli %210, %211 : i64 loc(#loc109)
    %c2147483647_i64_107 = arith.constant 2147483647 : i64 loc(#loc109)
    %c-2147483648_i64_108 = arith.constant -2147483648 : i64 loc(#loc109)
    %213 = arith.cmpi sle, %212, %c2147483647_i64_107 : i64 loc(#loc109)
    %214 = arith.cmpi sge, %212, %c-2147483648_i64_108 : i64 loc(#loc109)
    %215 = arith.andi %213, %214 : i1 loc(#loc109)
    %216 = arith.muli %0, %c64_i32_106 : i32 loc(#loc109)
    %217 = arith.extsi %arg2 : i32 to i64 loc(#loc110)
    %218 = arith.extsi %216 : i32 to i64 loc(#loc110)
    %219 = arith.subi %217, %218 : i64 loc(#loc110)
    %c2147483647_i64_109 = arith.constant 2147483647 : i64 loc(#loc110)
    %c-2147483648_i64_110 = arith.constant -2147483648 : i64 loc(#loc110)
    %220 = arith.cmpi sle, %219, %c2147483647_i64_109 : i64 loc(#loc110)
    %221 = arith.cmpi sge, %219, %c-2147483648_i64_110 : i64 loc(#loc110)
    %222 = arith.andi %220, %221 : i1 loc(#loc110)
    %223 = arith.subi %arg2, %216 : i32 loc(#loc110)
    %c64_i32_111 = arith.constant 64 : i32 loc(#loc111)
    %224 = arith.minsi %c64_i32_111, %223 : i32 loc(#loc111)
    %c50_i32 = arith.constant 50 : i32 loc(#loc112)
    %c1_i32_112 = arith.constant 1 : i32 loc(#loc112)
    %225 = arith.bitcast %c50_i32 : i32 to i32 loc(#loc112)
    %226 = arith.bitcast %224 : i32 to i32 loc(#loc112)
    %227 = arith.bitcast %c1_i32_112 : i32 to i32 loc(#loc112)
    %228 = ub.poison : i32 loc(#loc112)
    %229 = scf.for %arg3 = %225 to %226 step %227 iter_args(%arg4 = %149) -> (tensor<16x16xf32>)  : i32 {
      %c64_i32_301 = arith.constant 64 : i32 loc(#loc113)
      %c64_i32_302 = arith.constant 64 : i32 loc(#loc113)
      %504 = arith.extsi %0 : i32 to i64 loc(#loc113)
      %505 = arith.extsi %c64_i32_302 : i32 to i64 loc(#loc113)
      %506 = arith.muli %504, %505 : i64 loc(#loc113)
      %c2147483647_i64_303 = arith.constant 2147483647 : i64 loc(#loc113)
      %c-2147483648_i64_304 = arith.constant -2147483648 : i64 loc(#loc113)
      %507 = arith.cmpi sle, %506, %c2147483647_i64_303 : i64 loc(#loc113)
      %508 = arith.cmpi sge, %506, %c-2147483648_i64_304 : i64 loc(#loc113)
      %509 = arith.andi %507, %508 : i1 loc(#loc113)
      %510 = arith.muli %0, %c64_i32_302 : i32 loc(#loc113)
      %511 = arith.extsi %510 : i32 to i64 loc(#loc114)
      %512 = arith.extsi %arg3 : i32 to i64 loc(#loc114)
      %513 = arith.addi %511, %512 : i64 loc(#loc114)
      %c2147483647_i64_305 = arith.constant 2147483647 : i64 loc(#loc114)
      %c-2147483648_i64_306 = arith.constant -2147483648 : i64 loc(#loc114)
      %514 = arith.cmpi sle, %513, %c2147483647_i64_305 : i64 loc(#loc114)
      %515 = arith.cmpi sge, %513, %c-2147483648_i64_306 : i64 loc(#loc114)
      %516 = arith.andi %514, %515 : i1 loc(#loc114)
      %517 = arith.addi %510, %arg3 : i32 loc(#loc114)
      %c32_i32_307 = arith.constant 32 : i32 loc(#loc115)
      %c32_i32_308 = arith.constant 32 : i32 loc(#loc115)
      %518 = arith.extsi %517 : i32 to i64 loc(#loc115)
      %519 = arith.extsi %c32_i32_308 : i32 to i64 loc(#loc115)
      %520 = arith.muli %518, %519 : i64 loc(#loc115)
      %c2147483647_i64_309 = arith.constant 2147483647 : i64 loc(#loc115)
      %c-2147483648_i64_310 = arith.constant -2147483648 : i64 loc(#loc115)
      %521 = arith.cmpi sle, %520, %c2147483647_i64_309 : i64 loc(#loc115)
      %522 = arith.cmpi sge, %520, %c-2147483648_i64_310 : i64 loc(#loc115)
      %523 = arith.andi %521, %522 : i1 loc(#loc115)
      %524 = arith.muli %517, %c32_i32_308 : i32 loc(#loc115)
      %c64_i32_311 = arith.constant 64 : i32 loc(#loc116)
      %c64_i32_312 = arith.constant 64 : i32 loc(#loc116)
      %525 = arith.extsi %524 : i32 to i64 loc(#loc116)
      %526 = arith.extsi %c64_i32_312 : i32 to i64 loc(#loc116)
      %527 = arith.muli %525, %526 : i64 loc(#loc116)
      %c2147483647_i64_313 = arith.constant 2147483647 : i64 loc(#loc116)
      %c-2147483648_i64_314 = arith.constant -2147483648 : i64 loc(#loc116)
      %528 = arith.cmpi sle, %527, %c2147483647_i64_313 : i64 loc(#loc116)
      %529 = arith.cmpi sge, %527, %c-2147483648_i64_314 : i64 loc(#loc116)
      %530 = arith.andi %528, %529 : i1 loc(#loc116)
      %531 = arith.muli %524, %c64_i32_312 : i32 loc(#loc116)
      %532 = tt.addptr %57, %531 : !tt.ptr<f32>, i32 loc(#loc117)
      %533 = tt.splat %532 : !tt.ptr<f32> -> tensor<16x!tt.ptr<f32>> loc(#loc118)
      %534 = tt.addptr %533, %25 : tensor<16x!tt.ptr<f32>>, tensor<16xi32> loc(#loc118)
      %c48_i32_315 = arith.constant 48 : i32 loc(#loc119)
      %cst_316 = arith.constant dense<48> : tensor<16xi32> loc(#loc119)
      %535 = tt.addptr %534, %cst_316 : tensor<16x!tt.ptr<f32>>, tensor<16xi32> loc(#loc119)
      %536 = tt.load %535 : tensor<16x!tt.ptr<f32>> loc(#loc120)
      %cst_317 = arith.constant 0.000000e+00 : f32 loc(#loc121)
      %cst_318 = arith.constant dense<0.000000e+00> : tensor<16xf32> loc(#loc121)
      %537 = arith.subf %cst_318, %536 : tensor<16xf32> loc(#loc121)
      %538 = tt.expand_dims %537 {axis = 1 : i32} : tensor<16xf32> -> tensor<16x1xf32> loc(#loc122)
      %539 = tt.broadcast %538 : tensor<16x1xf32> -> tensor<16x16xf32> loc(#loc123)
      %540 = arith.mulf %539, %arg4 : tensor<16x16xf32> loc(#loc123)
      %541 = tt.call @"triton.language.standard.sum__fp32S16_16S__(1,)cconstexpr_0__(2,)cconstexpr_False__(3,)cNone"(%540) : (tensor<16x16xf32>) -> tensor<16xf32> loc(#loc124)
      %542 = arith.addf %537, %541 : tensor<16xf32> loc(#loc125)
      %c48_i32_319 = arith.constant 48 : i32 loc(#loc126)
      %c48_i32_320 = arith.constant 48 : i32 loc(#loc126)
      %543 = arith.extsi %arg3 : i32 to i64 loc(#loc126)
      %544 = arith.extsi %c48_i32_320 : i32 to i64 loc(#loc126)
      %545 = arith.subi %543, %544 : i64 loc(#loc126)
      %c2147483647_i64_321 = arith.constant 2147483647 : i64 loc(#loc126)
      %c-2147483648_i64_322 = arith.constant -2147483648 : i64 loc(#loc126)
      %546 = arith.cmpi sle, %545, %c2147483647_i64_321 : i64 loc(#loc126)
      %547 = arith.cmpi sge, %545, %c-2147483648_i64_322 : i64 loc(#loc126)
      %548 = arith.andi %546, %547 : i1 loc(#loc126)
      %549 = arith.subi %arg3, %c48_i32_320 : i32 loc(#loc126)
      %550 = tt.splat %549 : i32 -> tensor<16xi32> loc(#loc127)
      %551 = arith.cmpi eq, %25, %550 : tensor<16xi32> loc(#loc127)
      %552 = tt.expand_dims %551 {axis = 1 : i32} : tensor<16xi1> -> tensor<16x1xi1> loc(#loc128)
      %553 = tt.expand_dims %542 {axis = 0 : i32} : tensor<16xf32> -> tensor<1x16xf32> loc(#loc129)
      %554 = tt.broadcast %553 : tensor<1x16xf32> -> tensor<16x16xf32> loc(#loc129)
      %555 = tt.broadcast %552 : tensor<16x1xi1> -> tensor<16x16xi1> loc(#loc129)
      %556 = arith.select %555, %554, %arg4 : tensor<16x16xi1>, tensor<16x16xf32> loc(#loc129)
      scf.yield %556 : tensor<16x16xf32> loc(#loc130)
    } loc(#loc112)
    %230 = arith.uitofp %35 : tensor<16x16xi1> to tensor<16x16xf32> loc(#loc131)
    %231 = arith.addf %169, %230 : tensor<16x16xf32> loc(#loc131)
    %232 = arith.uitofp %35 : tensor<16x16xi1> to tensor<16x16xf32> loc(#loc132)
    %233 = arith.addf %189, %232 : tensor<16x16xf32> loc(#loc132)
    %234 = arith.uitofp %35 : tensor<16x16xi1> to tensor<16x16xf32> loc(#loc133)
    %235 = arith.addf %209, %234 : tensor<16x16xf32> loc(#loc133)
    %236 = arith.uitofp %35 : tensor<16x16xi1> to tensor<16x16xf32> loc(#loc134)
    %237 = arith.addf %229, %236 : tensor<16x16xf32> loc(#loc134)
    %c64_i32_113 = arith.constant 64 : i32 loc(#loc135)
    %c64_i32_114 = arith.constant 64 : i32 loc(#loc135)
    %238 = arith.extsi %0 : i32 to i64 loc(#loc135)
    %239 = arith.extsi %c64_i32_114 : i32 to i64 loc(#loc135)
    %240 = arith.muli %238, %239 : i64 loc(#loc135)
    %c2147483647_i64_115 = arith.constant 2147483647 : i64 loc(#loc135)
    %c-2147483648_i64_116 = arith.constant -2147483648 : i64 loc(#loc135)
    %241 = arith.cmpi sle, %240, %c2147483647_i64_115 : i64 loc(#loc135)
    %242 = arith.cmpi sge, %240, %c-2147483648_i64_116 : i64 loc(#loc135)
    %243 = arith.andi %241, %242 : i1 loc(#loc135)
    %244 = arith.muli %0, %c64_i32_114 : i32 loc(#loc135)
    %c16_i32_117 = arith.constant 16 : i32 loc(#loc136)
    %c16_i32_118 = arith.constant 16 : i32 loc(#loc136)
    %245 = arith.extsi %244 : i32 to i64 loc(#loc136)
    %246 = arith.extsi %c16_i32_118 : i32 to i64 loc(#loc136)
    %247 = arith.addi %245, %246 : i64 loc(#loc136)
    %c2147483647_i64_119 = arith.constant 2147483647 : i64 loc(#loc136)
    %c-2147483648_i64_120 = arith.constant -2147483648 : i64 loc(#loc136)
    %248 = arith.cmpi sle, %247, %c2147483647_i64_119 : i64 loc(#loc136)
    %249 = arith.cmpi sge, %247, %c-2147483648_i64_120 : i64 loc(#loc136)
    %250 = arith.andi %248, %249 : i1 loc(#loc136)
    %251 = arith.addi %244, %c16_i32_118 : i32 loc(#loc136)
    %c0_i32_121 = arith.constant 0 : i32 loc(#loc137)
    %252 = tt.descriptor_load %80[%251, %c0_i32_121] : !tt.tensordesc<tensor<16x16xf32>> -> tensor<16x16xf32> loc(#loc137)
    %c64_i32_122 = arith.constant 64 : i32 loc(#loc138)
    %c64_i32_123 = arith.constant 64 : i32 loc(#loc138)
    %253 = arith.extsi %0 : i32 to i64 loc(#loc138)
    %254 = arith.extsi %c64_i32_123 : i32 to i64 loc(#loc138)
    %255 = arith.muli %253, %254 : i64 loc(#loc138)
    %c2147483647_i64_124 = arith.constant 2147483647 : i64 loc(#loc138)
    %c-2147483648_i64_125 = arith.constant -2147483648 : i64 loc(#loc138)
    %256 = arith.cmpi sle, %255, %c2147483647_i64_124 : i64 loc(#loc138)
    %257 = arith.cmpi sge, %255, %c-2147483648_i64_125 : i64 loc(#loc138)
    %258 = arith.andi %256, %257 : i1 loc(#loc138)
    %259 = arith.muli %0, %c64_i32_123 : i32 loc(#loc138)
    %c32_i32_126 = arith.constant 32 : i32 loc(#loc139)
    %c32_i32_127 = arith.constant 32 : i32 loc(#loc139)
    %260 = arith.extsi %259 : i32 to i64 loc(#loc139)
    %261 = arith.extsi %c32_i32_127 : i32 to i64 loc(#loc139)
    %262 = arith.addi %260, %261 : i64 loc(#loc139)
    %c2147483647_i64_128 = arith.constant 2147483647 : i64 loc(#loc139)
    %c-2147483648_i64_129 = arith.constant -2147483648 : i64 loc(#loc139)
    %263 = arith.cmpi sle, %262, %c2147483647_i64_128 : i64 loc(#loc139)
    %264 = arith.cmpi sge, %262, %c-2147483648_i64_129 : i64 loc(#loc139)
    %265 = arith.andi %263, %264 : i1 loc(#loc139)
    %266 = arith.addi %259, %c32_i32_127 : i32 loc(#loc139)
    %c0_i32_130 = arith.constant 0 : i32 loc(#loc140)
    %267 = tt.descriptor_load %80[%266, %c0_i32_130] : !tt.tensordesc<tensor<16x16xf32>> -> tensor<16x16xf32> loc(#loc140)
    %c64_i32_131 = arith.constant 64 : i32 loc(#loc141)
    %c64_i32_132 = arith.constant 64 : i32 loc(#loc141)
    %268 = arith.extsi %0 : i32 to i64 loc(#loc141)
    %269 = arith.extsi %c64_i32_132 : i32 to i64 loc(#loc141)
    %270 = arith.muli %268, %269 : i64 loc(#loc141)
    %c2147483647_i64_133 = arith.constant 2147483647 : i64 loc(#loc141)
    %c-2147483648_i64_134 = arith.constant -2147483648 : i64 loc(#loc141)
    %271 = arith.cmpi sle, %270, %c2147483647_i64_133 : i64 loc(#loc141)
    %272 = arith.cmpi sge, %270, %c-2147483648_i64_134 : i64 loc(#loc141)
    %273 = arith.andi %271, %272 : i1 loc(#loc141)
    %274 = arith.muli %0, %c64_i32_132 : i32 loc(#loc141)
    %c32_i32_135 = arith.constant 32 : i32 loc(#loc142)
    %c32_i32_136 = arith.constant 32 : i32 loc(#loc142)
    %275 = arith.extsi %274 : i32 to i64 loc(#loc142)
    %276 = arith.extsi %c32_i32_136 : i32 to i64 loc(#loc142)
    %277 = arith.addi %275, %276 : i64 loc(#loc142)
    %c2147483647_i64_137 = arith.constant 2147483647 : i64 loc(#loc142)
    %c-2147483648_i64_138 = arith.constant -2147483648 : i64 loc(#loc142)
    %278 = arith.cmpi sle, %277, %c2147483647_i64_137 : i64 loc(#loc142)
    %279 = arith.cmpi sge, %277, %c-2147483648_i64_138 : i64 loc(#loc142)
    %280 = arith.andi %278, %279 : i1 loc(#loc142)
    %281 = arith.addi %274, %c32_i32_136 : i32 loc(#loc142)
    %c16_i32_139 = arith.constant 16 : i32 loc(#loc143)
    %282 = tt.descriptor_load %80[%281, %c16_i32_139] : !tt.tensordesc<tensor<16x16xf32>> -> tensor<16x16xf32> loc(#loc143)
    %c64_i32_140 = arith.constant 64 : i32 loc(#loc144)
    %c64_i32_141 = arith.constant 64 : i32 loc(#loc144)
    %283 = arith.extsi %0 : i32 to i64 loc(#loc144)
    %284 = arith.extsi %c64_i32_141 : i32 to i64 loc(#loc144)
    %285 = arith.muli %283, %284 : i64 loc(#loc144)
    %c2147483647_i64_142 = arith.constant 2147483647 : i64 loc(#loc144)
    %c-2147483648_i64_143 = arith.constant -2147483648 : i64 loc(#loc144)
    %286 = arith.cmpi sle, %285, %c2147483647_i64_142 : i64 loc(#loc144)
    %287 = arith.cmpi sge, %285, %c-2147483648_i64_143 : i64 loc(#loc144)
    %288 = arith.andi %286, %287 : i1 loc(#loc144)
    %289 = arith.muli %0, %c64_i32_141 : i32 loc(#loc144)
    %c48_i32_144 = arith.constant 48 : i32 loc(#loc145)
    %c48_i32_145 = arith.constant 48 : i32 loc(#loc145)
    %290 = arith.extsi %289 : i32 to i64 loc(#loc145)
    %291 = arith.extsi %c48_i32_145 : i32 to i64 loc(#loc145)
    %292 = arith.addi %290, %291 : i64 loc(#loc145)
    %c2147483647_i64_146 = arith.constant 2147483647 : i64 loc(#loc145)
    %c-2147483648_i64_147 = arith.constant -2147483648 : i64 loc(#loc145)
    %293 = arith.cmpi sle, %292, %c2147483647_i64_146 : i64 loc(#loc145)
    %294 = arith.cmpi sge, %292, %c-2147483648_i64_147 : i64 loc(#loc145)
    %295 = arith.andi %293, %294 : i1 loc(#loc145)
    %296 = arith.addi %289, %c48_i32_145 : i32 loc(#loc145)
    %c0_i32_148 = arith.constant 0 : i32 loc(#loc146)
    %297 = tt.descriptor_load %80[%296, %c0_i32_148] : !tt.tensordesc<tensor<16x16xf32>> -> tensor<16x16xf32> loc(#loc146)
    %c64_i32_149 = arith.constant 64 : i32 loc(#loc147)
    %c64_i32_150 = arith.constant 64 : i32 loc(#loc147)
    %298 = arith.extsi %0 : i32 to i64 loc(#loc147)
    %299 = arith.extsi %c64_i32_150 : i32 to i64 loc(#loc147)
    %300 = arith.muli %298, %299 : i64 loc(#loc147)
    %c2147483647_i64_151 = arith.constant 2147483647 : i64 loc(#loc147)
    %c-2147483648_i64_152 = arith.constant -2147483648 : i64 loc(#loc147)
    %301 = arith.cmpi sle, %300, %c2147483647_i64_151 : i64 loc(#loc147)
    %302 = arith.cmpi sge, %300, %c-2147483648_i64_152 : i64 loc(#loc147)
    %303 = arith.andi %301, %302 : i1 loc(#loc147)
    %304 = arith.muli %0, %c64_i32_150 : i32 loc(#loc147)
    %c48_i32_153 = arith.constant 48 : i32 loc(#loc148)
    %c48_i32_154 = arith.constant 48 : i32 loc(#loc148)
    %305 = arith.extsi %304 : i32 to i64 loc(#loc148)
    %306 = arith.extsi %c48_i32_154 : i32 to i64 loc(#loc148)
    %307 = arith.addi %305, %306 : i64 loc(#loc148)
    %c2147483647_i64_155 = arith.constant 2147483647 : i64 loc(#loc148)
    %c-2147483648_i64_156 = arith.constant -2147483648 : i64 loc(#loc148)
    %308 = arith.cmpi sle, %307, %c2147483647_i64_155 : i64 loc(#loc148)
    %309 = arith.cmpi sge, %307, %c-2147483648_i64_156 : i64 loc(#loc148)
    %310 = arith.andi %308, %309 : i1 loc(#loc148)
    %311 = arith.addi %304, %c48_i32_154 : i32 loc(#loc148)
    %c16_i32_157 = arith.constant 16 : i32 loc(#loc149)
    %312 = tt.descriptor_load %80[%311, %c16_i32_157] : !tt.tensordesc<tensor<16x16xf32>> -> tensor<16x16xf32> loc(#loc149)
    %c64_i32_158 = arith.constant 64 : i32 loc(#loc150)
    %c64_i32_159 = arith.constant 64 : i32 loc(#loc150)
    %313 = arith.extsi %0 : i32 to i64 loc(#loc150)
    %314 = arith.extsi %c64_i32_159 : i32 to i64 loc(#loc150)
    %315 = arith.muli %313, %314 : i64 loc(#loc150)
    %c2147483647_i64_160 = arith.constant 2147483647 : i64 loc(#loc150)
    %c-2147483648_i64_161 = arith.constant -2147483648 : i64 loc(#loc150)
    %316 = arith.cmpi sle, %315, %c2147483647_i64_160 : i64 loc(#loc150)
    %317 = arith.cmpi sge, %315, %c-2147483648_i64_161 : i64 loc(#loc150)
    %318 = arith.andi %316, %317 : i1 loc(#loc150)
    %319 = arith.muli %0, %c64_i32_159 : i32 loc(#loc150)
    %c48_i32_162 = arith.constant 48 : i32 loc(#loc151)
    %c48_i32_163 = arith.constant 48 : i32 loc(#loc151)
    %320 = arith.extsi %319 : i32 to i64 loc(#loc151)
    %321 = arith.extsi %c48_i32_163 : i32 to i64 loc(#loc151)
    %322 = arith.addi %320, %321 : i64 loc(#loc151)
    %c2147483647_i64_164 = arith.constant 2147483647 : i64 loc(#loc151)
    %c-2147483648_i64_165 = arith.constant -2147483648 : i64 loc(#loc151)
    %323 = arith.cmpi sle, %322, %c2147483647_i64_164 : i64 loc(#loc151)
    %324 = arith.cmpi sge, %322, %c-2147483648_i64_165 : i64 loc(#loc151)
    %325 = arith.andi %323, %324 : i1 loc(#loc151)
    %326 = arith.addi %319, %c48_i32_163 : i32 loc(#loc151)
    %c32_i32_166 = arith.constant 32 : i32 loc(#loc152)
    %327 = tt.descriptor_load %80[%326, %c32_i32_166] : !tt.tensordesc<tensor<16x16xf32>> -> tensor<16x16xf32> loc(#loc152)
    %cst_167 = arith.constant 0.000000e+00 : f32 loc(#loc153)
    %cst_168 = arith.constant dense<0.000000e+00> : tensor<16x16xf32> loc(#loc153)
    %328 = tt.dot %233, %252, %cst_168 : tensor<16x16xf32> * tensor<16x16xf32> -> tensor<16x16xf32> loc(#loc153)
    %cst_169 = arith.constant 0.000000e+00 : f32 loc(#loc154)
    %cst_170 = arith.constant dense<0.000000e+00> : tensor<16x16xf32> loc(#loc154)
    %329 = tt.dot %328, %231, %cst_170 : tensor<16x16xf32> * tensor<16x16xf32> -> tensor<16x16xf32> loc(#loc154)
    %cst_171 = arith.constant 0.000000e+00 : f32 loc(#loc155)
    %cst_172 = arith.constant dense<0.000000e+00> : tensor<16x16xf32> loc(#loc155)
    %330 = arith.subf %cst_172, %329 : tensor<16x16xf32> loc(#loc155)
    %cst_173 = arith.constant 0.000000e+00 : f32 loc(#loc156)
    %cst_174 = arith.constant dense<0.000000e+00> : tensor<16x16xf32> loc(#loc156)
    %331 = tt.dot %235, %282, %cst_174 : tensor<16x16xf32> * tensor<16x16xf32> -> tensor<16x16xf32> loc(#loc156)
    %cst_175 = arith.constant 0.000000e+00 : f32 loc(#loc157)
    %cst_176 = arith.constant dense<0.000000e+00> : tensor<16x16xf32> loc(#loc157)
    %332 = tt.dot %331, %233, %cst_176 : tensor<16x16xf32> * tensor<16x16xf32> -> tensor<16x16xf32> loc(#loc157)
    %cst_177 = arith.constant 0.000000e+00 : f32 loc(#loc158)
    %cst_178 = arith.constant dense<0.000000e+00> : tensor<16x16xf32> loc(#loc158)
    %333 = arith.subf %cst_178, %332 : tensor<16x16xf32> loc(#loc158)
    %cst_179 = arith.constant 0.000000e+00 : f32 loc(#loc159)
    %cst_180 = arith.constant dense<0.000000e+00> : tensor<16x16xf32> loc(#loc159)
    %334 = tt.dot %237, %327, %cst_180 : tensor<16x16xf32> * tensor<16x16xf32> -> tensor<16x16xf32> loc(#loc159)
    %cst_181 = arith.constant 0.000000e+00 : f32 loc(#loc160)
    %cst_182 = arith.constant dense<0.000000e+00> : tensor<16x16xf32> loc(#loc160)
    %335 = tt.dot %334, %235, %cst_182 : tensor<16x16xf32> * tensor<16x16xf32> -> tensor<16x16xf32> loc(#loc160)
    %cst_183 = arith.constant 0.000000e+00 : f32 loc(#loc161)
    %cst_184 = arith.constant dense<0.000000e+00> : tensor<16x16xf32> loc(#loc161)
    %336 = arith.subf %cst_184, %335 : tensor<16x16xf32> loc(#loc161)
    %cst_185 = arith.constant 0.000000e+00 : f32 loc(#loc162)
    %cst_186 = arith.constant dense<0.000000e+00> : tensor<16x16xf32> loc(#loc162)
    %337 = tt.dot %267, %231, %cst_186 : tensor<16x16xf32> * tensor<16x16xf32> -> tensor<16x16xf32> loc(#loc162)
    %cst_187 = arith.constant 0.000000e+00 : f32 loc(#loc163)
    %cst_188 = arith.constant dense<0.000000e+00> : tensor<16x16xf32> loc(#loc163)
    %338 = tt.dot %282, %330, %cst_188 : tensor<16x16xf32> * tensor<16x16xf32> -> tensor<16x16xf32> loc(#loc163)
    %339 = arith.addf %337, %338 : tensor<16x16xf32> loc(#loc164)
    %cst_189 = arith.constant 0.000000e+00 : f32 loc(#loc165)
    %cst_190 = arith.constant dense<0.000000e+00> : tensor<16x16xf32> loc(#loc165)
    %340 = tt.dot %235, %339, %cst_190 : tensor<16x16xf32> * tensor<16x16xf32> -> tensor<16x16xf32> loc(#loc165)
    %cst_191 = arith.constant 0.000000e+00 : f32 loc(#loc166)
    %cst_192 = arith.constant dense<0.000000e+00> : tensor<16x16xf32> loc(#loc166)
    %341 = arith.subf %cst_192, %340 : tensor<16x16xf32> loc(#loc166)
    %cst_193 = arith.constant 0.000000e+00 : f32 loc(#loc167)
    %cst_194 = arith.constant dense<0.000000e+00> : tensor<16x16xf32> loc(#loc167)
    %342 = tt.dot %312, %233, %cst_194 : tensor<16x16xf32> * tensor<16x16xf32> -> tensor<16x16xf32> loc(#loc167)
    %cst_195 = arith.constant 0.000000e+00 : f32 loc(#loc168)
    %cst_196 = arith.constant dense<0.000000e+00> : tensor<16x16xf32> loc(#loc168)
    %343 = tt.dot %327, %333, %cst_196 : tensor<16x16xf32> * tensor<16x16xf32> -> tensor<16x16xf32> loc(#loc168)
    %344 = arith.addf %342, %343 : tensor<16x16xf32> loc(#loc169)
    %cst_197 = arith.constant 0.000000e+00 : f32 loc(#loc170)
    %cst_198 = arith.constant dense<0.000000e+00> : tensor<16x16xf32> loc(#loc170)
    %345 = tt.dot %237, %344, %cst_198 : tensor<16x16xf32> * tensor<16x16xf32> -> tensor<16x16xf32> loc(#loc170)
    %cst_199 = arith.constant 0.000000e+00 : f32 loc(#loc171)
    %cst_200 = arith.constant dense<0.000000e+00> : tensor<16x16xf32> loc(#loc171)
    %346 = arith.subf %cst_200, %345 : tensor<16x16xf32> loc(#loc171)
    %cst_201 = arith.constant 0.000000e+00 : f32 loc(#loc172)
    %cst_202 = arith.constant dense<0.000000e+00> : tensor<16x16xf32> loc(#loc172)
    %347 = tt.dot %297, %231, %cst_202 : tensor<16x16xf32> * tensor<16x16xf32> -> tensor<16x16xf32> loc(#loc172)
    %cst_203 = arith.constant 0.000000e+00 : f32 loc(#loc173)
    %cst_204 = arith.constant dense<0.000000e+00> : tensor<16x16xf32> loc(#loc173)
    %348 = tt.dot %312, %330, %cst_204 : tensor<16x16xf32> * tensor<16x16xf32> -> tensor<16x16xf32> loc(#loc173)
    %349 = arith.addf %347, %348 : tensor<16x16xf32> loc(#loc174)
    %cst_205 = arith.constant 0.000000e+00 : f32 loc(#loc175)
    %cst_206 = arith.constant dense<0.000000e+00> : tensor<16x16xf32> loc(#loc175)
    %350 = tt.dot %327, %341, %cst_206 : tensor<16x16xf32> * tensor<16x16xf32> -> tensor<16x16xf32> loc(#loc175)
    %351 = arith.addf %349, %350 : tensor<16x16xf32> loc(#loc176)
    %cst_207 = arith.constant 0.000000e+00 : f32 loc(#loc177)
    %cst_208 = arith.constant dense<0.000000e+00> : tensor<16x16xf32> loc(#loc177)
    %352 = tt.dot %237, %351, %cst_208 : tensor<16x16xf32> * tensor<16x16xf32> -> tensor<16x16xf32> loc(#loc177)
    %cst_209 = arith.constant 0.000000e+00 : f32 loc(#loc178)
    %cst_210 = arith.constant dense<0.000000e+00> : tensor<16x16xf32> loc(#loc178)
    %353 = arith.subf %cst_210, %352 : tensor<16x16xf32> loc(#loc178)
    %c64_i32_211 = arith.constant 64 : i32 loc(#loc179)
    %c64_i32_212 = arith.constant 64 : i32 loc(#loc179)
    %354 = arith.extsi %0 : i32 to i64 loc(#loc179)
    %355 = arith.extsi %c64_i32_212 : i32 to i64 loc(#loc179)
    %356 = arith.muli %354, %355 : i64 loc(#loc179)
    %c2147483647_i64_213 = arith.constant 2147483647 : i64 loc(#loc179)
    %c-2147483648_i64_214 = arith.constant -2147483648 : i64 loc(#loc179)
    %357 = arith.cmpi sle, %356, %c2147483647_i64_213 : i64 loc(#loc179)
    %358 = arith.cmpi sge, %356, %c-2147483648_i64_214 : i64 loc(#loc179)
    %359 = arith.andi %357, %358 : i1 loc(#loc179)
    %360 = arith.muli %0, %c64_i32_212 : i32 loc(#loc179)
    %c0_i32_215 = arith.constant 0 : i32 loc(#loc180)
    %c0_i32_216 = arith.constant 0 : i32 loc(#loc180)
    %361 = arith.extsi %360 : i32 to i64 loc(#loc180)
    %362 = arith.extsi %c0_i32_216 : i32 to i64 loc(#loc180)
    %363 = arith.addi %361, %362 : i64 loc(#loc180)
    %c2147483647_i64_217 = arith.constant 2147483647 : i64 loc(#loc180)
    %c-2147483648_i64_218 = arith.constant -2147483648 : i64 loc(#loc180)
    %364 = arith.cmpi sle, %363, %c2147483647_i64_217 : i64 loc(#loc180)
    %365 = arith.cmpi sge, %363, %c-2147483648_i64_218 : i64 loc(#loc180)
    %366 = arith.andi %364, %365 : i1 loc(#loc180)
    %367 = arith.addi %360, %c0_i32_216 : i32 loc(#loc180)
    %368 = arith.truncf %231 : tensor<16x16xf32> to tensor<16x16xbf16> loc(#loc181)
    %c0_i32_219 = arith.constant 0 : i32 loc(#loc182)
    tt.descriptor_store %81[%367, %c0_i32_219], %368 : !tt.tensordesc<tensor<16x16xbf16>>, tensor<16x16xbf16> loc(#loc182)
    %c64_i32_220 = arith.constant 64 : i32 loc(#loc183)
    %c64_i32_221 = arith.constant 64 : i32 loc(#loc183)
    %369 = arith.extsi %0 : i32 to i64 loc(#loc183)
    %370 = arith.extsi %c64_i32_221 : i32 to i64 loc(#loc183)
    %371 = arith.muli %369, %370 : i64 loc(#loc183)
    %c2147483647_i64_222 = arith.constant 2147483647 : i64 loc(#loc183)
    %c-2147483648_i64_223 = arith.constant -2147483648 : i64 loc(#loc183)
    %372 = arith.cmpi sle, %371, %c2147483647_i64_222 : i64 loc(#loc183)
    %373 = arith.cmpi sge, %371, %c-2147483648_i64_223 : i64 loc(#loc183)
    %374 = arith.andi %372, %373 : i1 loc(#loc183)
    %375 = arith.muli %0, %c64_i32_221 : i32 loc(#loc183)
    %c16_i32_224 = arith.constant 16 : i32 loc(#loc184)
    %c16_i32_225 = arith.constant 16 : i32 loc(#loc184)
    %376 = arith.extsi %375 : i32 to i64 loc(#loc184)
    %377 = arith.extsi %c16_i32_225 : i32 to i64 loc(#loc184)
    %378 = arith.addi %376, %377 : i64 loc(#loc184)
    %c2147483647_i64_226 = arith.constant 2147483647 : i64 loc(#loc184)
    %c-2147483648_i64_227 = arith.constant -2147483648 : i64 loc(#loc184)
    %379 = arith.cmpi sle, %378, %c2147483647_i64_226 : i64 loc(#loc184)
    %380 = arith.cmpi sge, %378, %c-2147483648_i64_227 : i64 loc(#loc184)
    %381 = arith.andi %379, %380 : i1 loc(#loc184)
    %382 = arith.addi %375, %c16_i32_225 : i32 loc(#loc184)
    %383 = arith.truncf %233 : tensor<16x16xf32> to tensor<16x16xbf16> loc(#loc185)
    %c16_i32_228 = arith.constant 16 : i32 loc(#loc186)
    tt.descriptor_store %81[%382, %c16_i32_228], %383 : !tt.tensordesc<tensor<16x16xbf16>>, tensor<16x16xbf16> loc(#loc186)
    %c64_i32_229 = arith.constant 64 : i32 loc(#loc187)
    %c64_i32_230 = arith.constant 64 : i32 loc(#loc187)
    %384 = arith.extsi %0 : i32 to i64 loc(#loc187)
    %385 = arith.extsi %c64_i32_230 : i32 to i64 loc(#loc187)
    %386 = arith.muli %384, %385 : i64 loc(#loc187)
    %c2147483647_i64_231 = arith.constant 2147483647 : i64 loc(#loc187)
    %c-2147483648_i64_232 = arith.constant -2147483648 : i64 loc(#loc187)
    %387 = arith.cmpi sle, %386, %c2147483647_i64_231 : i64 loc(#loc187)
    %388 = arith.cmpi sge, %386, %c-2147483648_i64_232 : i64 loc(#loc187)
    %389 = arith.andi %387, %388 : i1 loc(#loc187)
    %390 = arith.muli %0, %c64_i32_230 : i32 loc(#loc187)
    %c32_i32_233 = arith.constant 32 : i32 loc(#loc188)
    %c32_i32_234 = arith.constant 32 : i32 loc(#loc188)
    %391 = arith.extsi %390 : i32 to i64 loc(#loc188)
    %392 = arith.extsi %c32_i32_234 : i32 to i64 loc(#loc188)
    %393 = arith.addi %391, %392 : i64 loc(#loc188)
    %c2147483647_i64_235 = arith.constant 2147483647 : i64 loc(#loc188)
    %c-2147483648_i64_236 = arith.constant -2147483648 : i64 loc(#loc188)
    %394 = arith.cmpi sle, %393, %c2147483647_i64_235 : i64 loc(#loc188)
    %395 = arith.cmpi sge, %393, %c-2147483648_i64_236 : i64 loc(#loc188)
    %396 = arith.andi %394, %395 : i1 loc(#loc188)
    %397 = arith.addi %390, %c32_i32_234 : i32 loc(#loc188)
    %398 = arith.truncf %235 : tensor<16x16xf32> to tensor<16x16xbf16> loc(#loc189)
    %c32_i32_237 = arith.constant 32 : i32 loc(#loc190)
    tt.descriptor_store %81[%397, %c32_i32_237], %398 : !tt.tensordesc<tensor<16x16xbf16>>, tensor<16x16xbf16> loc(#loc190)
    %c64_i32_238 = arith.constant 64 : i32 loc(#loc191)
    %c64_i32_239 = arith.constant 64 : i32 loc(#loc191)
    %399 = arith.extsi %0 : i32 to i64 loc(#loc191)
    %400 = arith.extsi %c64_i32_239 : i32 to i64 loc(#loc191)
    %401 = arith.muli %399, %400 : i64 loc(#loc191)
    %c2147483647_i64_240 = arith.constant 2147483647 : i64 loc(#loc191)
    %c-2147483648_i64_241 = arith.constant -2147483648 : i64 loc(#loc191)
    %402 = arith.cmpi sle, %401, %c2147483647_i64_240 : i64 loc(#loc191)
    %403 = arith.cmpi sge, %401, %c-2147483648_i64_241 : i64 loc(#loc191)
    %404 = arith.andi %402, %403 : i1 loc(#loc191)
    %405 = arith.muli %0, %c64_i32_239 : i32 loc(#loc191)
    %c48_i32_242 = arith.constant 48 : i32 loc(#loc192)
    %c48_i32_243 = arith.constant 48 : i32 loc(#loc192)
    %406 = arith.extsi %405 : i32 to i64 loc(#loc192)
    %407 = arith.extsi %c48_i32_243 : i32 to i64 loc(#loc192)
    %408 = arith.addi %406, %407 : i64 loc(#loc192)
    %c2147483647_i64_244 = arith.constant 2147483647 : i64 loc(#loc192)
    %c-2147483648_i64_245 = arith.constant -2147483648 : i64 loc(#loc192)
    %409 = arith.cmpi sle, %408, %c2147483647_i64_244 : i64 loc(#loc192)
    %410 = arith.cmpi sge, %408, %c-2147483648_i64_245 : i64 loc(#loc192)
    %411 = arith.andi %409, %410 : i1 loc(#loc192)
    %412 = arith.addi %405, %c48_i32_243 : i32 loc(#loc192)
    %413 = arith.truncf %237 : tensor<16x16xf32> to tensor<16x16xbf16> loc(#loc193)
    %c48_i32_246 = arith.constant 48 : i32 loc(#loc194)
    tt.descriptor_store %81[%412, %c48_i32_246], %413 : !tt.tensordesc<tensor<16x16xbf16>>, tensor<16x16xbf16> loc(#loc194)
    %c64_i32_247 = arith.constant 64 : i32 loc(#loc195)
    %c64_i32_248 = arith.constant 64 : i32 loc(#loc195)
    %414 = arith.extsi %0 : i32 to i64 loc(#loc195)
    %415 = arith.extsi %c64_i32_248 : i32 to i64 loc(#loc195)
    %416 = arith.muli %414, %415 : i64 loc(#loc195)
    %c2147483647_i64_249 = arith.constant 2147483647 : i64 loc(#loc195)
    %c-2147483648_i64_250 = arith.constant -2147483648 : i64 loc(#loc195)
    %417 = arith.cmpi sle, %416, %c2147483647_i64_249 : i64 loc(#loc195)
    %418 = arith.cmpi sge, %416, %c-2147483648_i64_250 : i64 loc(#loc195)
    %419 = arith.andi %417, %418 : i1 loc(#loc195)
    %420 = arith.muli %0, %c64_i32_248 : i32 loc(#loc195)
    %c16_i32_251 = arith.constant 16 : i32 loc(#loc196)
    %c16_i32_252 = arith.constant 16 : i32 loc(#loc196)
    %421 = arith.extsi %420 : i32 to i64 loc(#loc196)
    %422 = arith.extsi %c16_i32_252 : i32 to i64 loc(#loc196)
    %423 = arith.addi %421, %422 : i64 loc(#loc196)
    %c2147483647_i64_253 = arith.constant 2147483647 : i64 loc(#loc196)
    %c-2147483648_i64_254 = arith.constant -2147483648 : i64 loc(#loc196)
    %424 = arith.cmpi sle, %423, %c2147483647_i64_253 : i64 loc(#loc196)
    %425 = arith.cmpi sge, %423, %c-2147483648_i64_254 : i64 loc(#loc196)
    %426 = arith.andi %424, %425 : i1 loc(#loc196)
    %427 = arith.addi %420, %c16_i32_252 : i32 loc(#loc196)
    %428 = arith.truncf %330 : tensor<16x16xf32> to tensor<16x16xbf16> loc(#loc197)
    %c0_i32_255 = arith.constant 0 : i32 loc(#loc198)
    tt.descriptor_store %81[%427, %c0_i32_255], %428 : !tt.tensordesc<tensor<16x16xbf16>>, tensor<16x16xbf16> loc(#loc198)
    %c64_i32_256 = arith.constant 64 : i32 loc(#loc199)
    %c64_i32_257 = arith.constant 64 : i32 loc(#loc199)
    %429 = arith.extsi %0 : i32 to i64 loc(#loc199)
    %430 = arith.extsi %c64_i32_257 : i32 to i64 loc(#loc199)
    %431 = arith.muli %429, %430 : i64 loc(#loc199)
    %c2147483647_i64_258 = arith.constant 2147483647 : i64 loc(#loc199)
    %c-2147483648_i64_259 = arith.constant -2147483648 : i64 loc(#loc199)
    %432 = arith.cmpi sle, %431, %c2147483647_i64_258 : i64 loc(#loc199)
    %433 = arith.cmpi sge, %431, %c-2147483648_i64_259 : i64 loc(#loc199)
    %434 = arith.andi %432, %433 : i1 loc(#loc199)
    %435 = arith.muli %0, %c64_i32_257 : i32 loc(#loc199)
    %c32_i32_260 = arith.constant 32 : i32 loc(#loc200)
    %c32_i32_261 = arith.constant 32 : i32 loc(#loc200)
    %436 = arith.extsi %435 : i32 to i64 loc(#loc200)
    %437 = arith.extsi %c32_i32_261 : i32 to i64 loc(#loc200)
    %438 = arith.addi %436, %437 : i64 loc(#loc200)
    %c2147483647_i64_262 = arith.constant 2147483647 : i64 loc(#loc200)
    %c-2147483648_i64_263 = arith.constant -2147483648 : i64 loc(#loc200)
    %439 = arith.cmpi sle, %438, %c2147483647_i64_262 : i64 loc(#loc200)
    %440 = arith.cmpi sge, %438, %c-2147483648_i64_263 : i64 loc(#loc200)
    %441 = arith.andi %439, %440 : i1 loc(#loc200)
    %442 = arith.addi %435, %c32_i32_261 : i32 loc(#loc200)
    %443 = arith.truncf %341 : tensor<16x16xf32> to tensor<16x16xbf16> loc(#loc201)
    %c0_i32_264 = arith.constant 0 : i32 loc(#loc202)
    tt.descriptor_store %81[%442, %c0_i32_264], %443 : !tt.tensordesc<tensor<16x16xbf16>>, tensor<16x16xbf16> loc(#loc202)
    %c64_i32_265 = arith.constant 64 : i32 loc(#loc203)
    %c64_i32_266 = arith.constant 64 : i32 loc(#loc203)
    %444 = arith.extsi %0 : i32 to i64 loc(#loc203)
    %445 = arith.extsi %c64_i32_266 : i32 to i64 loc(#loc203)
    %446 = arith.muli %444, %445 : i64 loc(#loc203)
    %c2147483647_i64_267 = arith.constant 2147483647 : i64 loc(#loc203)
    %c-2147483648_i64_268 = arith.constant -2147483648 : i64 loc(#loc203)
    %447 = arith.cmpi sle, %446, %c2147483647_i64_267 : i64 loc(#loc203)
    %448 = arith.cmpi sge, %446, %c-2147483648_i64_268 : i64 loc(#loc203)
    %449 = arith.andi %447, %448 : i1 loc(#loc203)
    %450 = arith.muli %0, %c64_i32_266 : i32 loc(#loc203)
    %c32_i32_269 = arith.constant 32 : i32 loc(#loc204)
    %c32_i32_270 = arith.constant 32 : i32 loc(#loc204)
    %451 = arith.extsi %450 : i32 to i64 loc(#loc204)
    %452 = arith.extsi %c32_i32_270 : i32 to i64 loc(#loc204)
    %453 = arith.addi %451, %452 : i64 loc(#loc204)
    %c2147483647_i64_271 = arith.constant 2147483647 : i64 loc(#loc204)
    %c-2147483648_i64_272 = arith.constant -2147483648 : i64 loc(#loc204)
    %454 = arith.cmpi sle, %453, %c2147483647_i64_271 : i64 loc(#loc204)
    %455 = arith.cmpi sge, %453, %c-2147483648_i64_272 : i64 loc(#loc204)
    %456 = arith.andi %454, %455 : i1 loc(#loc204)
    %457 = arith.addi %450, %c32_i32_270 : i32 loc(#loc204)
    %458 = arith.truncf %333 : tensor<16x16xf32> to tensor<16x16xbf16> loc(#loc205)
    %c16_i32_273 = arith.constant 16 : i32 loc(#loc206)
    tt.descriptor_store %81[%457, %c16_i32_273], %458 : !tt.tensordesc<tensor<16x16xbf16>>, tensor<16x16xbf16> loc(#loc206)
    %c64_i32_274 = arith.constant 64 : i32 loc(#loc207)
    %c64_i32_275 = arith.constant 64 : i32 loc(#loc207)
    %459 = arith.extsi %0 : i32 to i64 loc(#loc207)
    %460 = arith.extsi %c64_i32_275 : i32 to i64 loc(#loc207)
    %461 = arith.muli %459, %460 : i64 loc(#loc207)
    %c2147483647_i64_276 = arith.constant 2147483647 : i64 loc(#loc207)
    %c-2147483648_i64_277 = arith.constant -2147483648 : i64 loc(#loc207)
    %462 = arith.cmpi sle, %461, %c2147483647_i64_276 : i64 loc(#loc207)
    %463 = arith.cmpi sge, %461, %c-2147483648_i64_277 : i64 loc(#loc207)
    %464 = arith.andi %462, %463 : i1 loc(#loc207)
    %465 = arith.muli %0, %c64_i32_275 : i32 loc(#loc207)
    %c48_i32_278 = arith.constant 48 : i32 loc(#loc208)
    %c48_i32_279 = arith.constant 48 : i32 loc(#loc208)
    %466 = arith.extsi %465 : i32 to i64 loc(#loc208)
    %467 = arith.extsi %c48_i32_279 : i32 to i64 loc(#loc208)
    %468 = arith.addi %466, %467 : i64 loc(#loc208)
    %c2147483647_i64_280 = arith.constant 2147483647 : i64 loc(#loc208)
    %c-2147483648_i64_281 = arith.constant -2147483648 : i64 loc(#loc208)
    %469 = arith.cmpi sle, %468, %c2147483647_i64_280 : i64 loc(#loc208)
    %470 = arith.cmpi sge, %468, %c-2147483648_i64_281 : i64 loc(#loc208)
    %471 = arith.andi %469, %470 : i1 loc(#loc208)
    %472 = arith.addi %465, %c48_i32_279 : i32 loc(#loc208)
    %473 = arith.truncf %353 : tensor<16x16xf32> to tensor<16x16xbf16> loc(#loc209)
    %c0_i32_282 = arith.constant 0 : i32 loc(#loc210)
    tt.descriptor_store %81[%472, %c0_i32_282], %473 : !tt.tensordesc<tensor<16x16xbf16>>, tensor<16x16xbf16> loc(#loc210)
    %c64_i32_283 = arith.constant 64 : i32 loc(#loc211)
    %c64_i32_284 = arith.constant 64 : i32 loc(#loc211)
    %474 = arith.extsi %0 : i32 to i64 loc(#loc211)
    %475 = arith.extsi %c64_i32_284 : i32 to i64 loc(#loc211)
    %476 = arith.muli %474, %475 : i64 loc(#loc211)
    %c2147483647_i64_285 = arith.constant 2147483647 : i64 loc(#loc211)
    %c-2147483648_i64_286 = arith.constant -2147483648 : i64 loc(#loc211)
    %477 = arith.cmpi sle, %476, %c2147483647_i64_285 : i64 loc(#loc211)
    %478 = arith.cmpi sge, %476, %c-2147483648_i64_286 : i64 loc(#loc211)
    %479 = arith.andi %477, %478 : i1 loc(#loc211)
    %480 = arith.muli %0, %c64_i32_284 : i32 loc(#loc211)
    %c48_i32_287 = arith.constant 48 : i32 loc(#loc212)
    %c48_i32_288 = arith.constant 48 : i32 loc(#loc212)
    %481 = arith.extsi %480 : i32 to i64 loc(#loc212)
    %482 = arith.extsi %c48_i32_288 : i32 to i64 loc(#loc212)
    %483 = arith.addi %481, %482 : i64 loc(#loc212)
    %c2147483647_i64_289 = arith.constant 2147483647 : i64 loc(#loc212)
    %c-2147483648_i64_290 = arith.constant -2147483648 : i64 loc(#loc212)
    %484 = arith.cmpi sle, %483, %c2147483647_i64_289 : i64 loc(#loc212)
    %485 = arith.cmpi sge, %483, %c-2147483648_i64_290 : i64 loc(#loc212)
    %486 = arith.andi %484, %485 : i1 loc(#loc212)
    %487 = arith.addi %480, %c48_i32_288 : i32 loc(#loc212)
    %488 = arith.truncf %346 : tensor<16x16xf32> to tensor<16x16xbf16> loc(#loc213)
    %c16_i32_291 = arith.constant 16 : i32 loc(#loc214)
    tt.descriptor_store %81[%487, %c16_i32_291], %488 : !tt.tensordesc<tensor<16x16xbf16>>, tensor<16x16xbf16> loc(#loc214)
    %c64_i32_292 = arith.constant 64 : i32 loc(#loc215)
    %c64_i32_293 = arith.constant 64 : i32 loc(#loc215)
    %489 = arith.extsi %0 : i32 to i64 loc(#loc215)
    %490 = arith.extsi %c64_i32_293 : i32 to i64 loc(#loc215)
    %491 = arith.muli %489, %490 : i64 loc(#loc215)
    %c2147483647_i64_294 = arith.constant 2147483647 : i64 loc(#loc215)
    %c-2147483648_i64_295 = arith.constant -2147483648 : i64 loc(#loc215)
    %492 = arith.cmpi sle, %491, %c2147483647_i64_294 : i64 loc(#loc215)
    %493 = arith.cmpi sge, %491, %c-2147483648_i64_295 : i64 loc(#loc215)
    %494 = arith.andi %492, %493 : i1 loc(#loc215)
    %495 = arith.muli %0, %c64_i32_293 : i32 loc(#loc215)
    %c48_i32_296 = arith.constant 48 : i32 loc(#loc216)
    %c48_i32_297 = arith.constant 48 : i32 loc(#loc216)
    %496 = arith.extsi %495 : i32 to i64 loc(#loc216)
    %497 = arith.extsi %c48_i32_297 : i32 to i64 loc(#loc216)
    %498 = arith.addi %496, %497 : i64 loc(#loc216)
    %c2147483647_i64_298 = arith.constant 2147483647 : i64 loc(#loc216)
    %c-2147483648_i64_299 = arith.constant -2147483648 : i64 loc(#loc216)
    %499 = arith.cmpi sle, %498, %c2147483647_i64_298 : i64 loc(#loc216)
    %500 = arith.cmpi sge, %498, %c-2147483648_i64_299 : i64 loc(#loc216)
    %501 = arith.andi %499, %500 : i1 loc(#loc216)
    %502 = arith.addi %495, %c48_i32_297 : i32 loc(#loc216)
    %503 = arith.truncf %336 : tensor<16x16xf32> to tensor<16x16xbf16> loc(#loc217)
    %c32_i32_300 = arith.constant 32 : i32 loc(#loc218)
    tt.descriptor_store %81[%502, %c32_i32_300], %503 : !tt.tensordesc<tensor<16x16xbf16>>, tensor<16x16xbf16> loc(#loc218)
    tt.return loc(#loc219)
  } loc(#loc)
  tt.func private @"triton.language.standard.sum__fp32S16_16S__(1,)cconstexpr_0__(2,)cconstexpr_False__(3,)cNone"(%arg0: tensor<16x16xf32> loc("/home/zeus/miniconda3/envs/cloudspace/lib/python3.13/site-packages/triton/language/standard.py":284:0)) -> tensor<16xf32> attributes {noinline = false} {
    %0 = "tt.reduce"(%arg0) <{axis = 0 : i32}> ({
    ^bb0(%arg1: f32 loc(unknown), %arg2: f32 loc(unknown)):
      %2 = tt.call @triton.language.standard._sum_combine__fp32_fp32__(%arg1, %arg2) : (f32, f32) -> f32 loc(#loc221)
      tt.reduce.return %2 : f32 loc(#loc221)
    }) : (tensor<16x16xf32>) -> tensor<16xf32> loc(#loc221)
    tt.return %0 : tensor<16xf32> loc(#loc223)
  ^bb1:  // no predecessors
    %1 = ub.poison : tensor<16xf32> loc(#loc224)
    tt.return %1 : tensor<16xf32> loc(#loc224)
  } loc(#loc220)
  tt.func private @triton.language.standard._sum_combine__fp32_fp32__(%arg0: f32 loc("/home/zeus/miniconda3/envs/cloudspace/lib/python3.13/site-packages/triton/language/standard.py":259:0), %arg1: f32 loc("/home/zeus/miniconda3/envs/cloudspace/lib/python3.13/site-packages/triton/language/standard.py":259:0)) -> f32 attributes {noinline = false} {
    %0 = arith.addf %arg0, %arg1 : f32 loc(#loc226)
    tt.return %0 : f32 loc(#loc227)
  ^bb1:  // no predecessors
    %1 = ub.poison : f32 loc(#loc228)
    tt.return %1 : f32 loc(#loc228)
  } loc(#loc225)
} loc(#loc)
#loc1 = loc("/home/zeus/miniconda3/envs/cloudspace/lib/python3.13/site-packages/fla/ops/utils/solve_tril.py":195:30)
#loc2 = loc("/home/zeus/miniconda3/envs/cloudspace/lib/python3.13/site-packages/fla/ops/utils/solve_tril.py":195:48)
#loc3 = loc("/home/zeus/miniconda3/envs/cloudspace/lib/python3.13/site-packages/fla/ops/utils/solve_tril.py":196:23)
#loc4 = loc("/home/zeus/miniconda3/envs/cloudspace/lib/python3.13/site-packages/fla/ops/utils/solve_tril.py":196:33)
#loc5 = loc("/home/zeus/miniconda3/envs/cloudspace/lib/python3.13/site-packages/fla/ops/utils/solve_tril.py":202:25)
#loc6 = loc("/home/zeus/miniconda3/envs/cloudspace/lib/python3.13/site-packages/fla/ops/utils/solve_tril.py":202:34)
#loc7 = loc("/home/zeus/miniconda3/envs/cloudspace/lib/python3.13/site-packages/fla/ops/utils/solve_tril.py":202:38)
#loc8 = loc("/home/zeus/miniconda3/envs/cloudspace/lib/python3.13/site-packages/fla/ops/utils/solve_tril.py":204:23)
#loc9 = loc("/home/zeus/miniconda3/envs/cloudspace/lib/python3.13/site-packages/fla/ops/utils/solve_tril.py":205:14)
#loc10 = loc("/home/zeus/miniconda3/envs/cloudspace/lib/python3.13/site-packages/fla/ops/utils/solve_tril.py":205:29)
#loc11 = loc("/home/zeus/miniconda3/envs/cloudspace/lib/python3.13/site-packages/fla/ops/utils/solve_tril.py":205:25)
#loc12 = loc("/home/zeus/miniconda3/envs/cloudspace/lib/python3.13/site-packages/fla/ops/utils/solve_tril.py":206:14)
#loc13 = loc("/home/zeus/miniconda3/envs/cloudspace/lib/python3.13/site-packages/fla/ops/utils/solve_tril.py":206:30)
#loc14 = loc("/home/zeus/miniconda3/envs/cloudspace/lib/python3.13/site-packages/fla/ops/utils/solve_tril.py":206:26)
#loc15 = loc("/home/zeus/miniconda3/envs/cloudspace/lib/python3.13/site-packages/fla/ops/utils/solve_tril.py":207:16)
#loc16 = loc("/home/zeus/miniconda3/envs/cloudspace/lib/python3.13/site-packages/fla/ops/utils/solve_tril.py":207:20)
#loc17 = loc("/home/zeus/miniconda3/envs/cloudspace/lib/python3.13/site-packages/fla/ops/utils/solve_tril.py":207:27)
#loc18 = loc("/home/zeus/miniconda3/envs/cloudspace/lib/python3.13/site-packages/fla/ops/utils/solve_tril.py":207:9)
#loc19 = loc("/home/zeus/miniconda3/envs/cloudspace/lib/python3.13/site-packages/fla/ops/utils/solve_tril.py":208:17)
#loc20 = loc("/home/zeus/miniconda3/envs/cloudspace/lib/python3.13/site-packages/fla/ops/utils/solve_tril.py":208:21)
#loc21 = loc("/home/zeus/miniconda3/envs/cloudspace/lib/python3.13/site-packages/fla/ops/utils/solve_tril.py":208:28)
#loc22 = loc("/home/zeus/miniconda3/envs/cloudspace/lib/python3.13/site-packages/fla/ops/utils/solve_tril.py":208:10)
#loc23 = loc("/home/zeus/miniconda3/envs/cloudspace/lib/python3.13/site-packages/fla/ops/utils/solve_tril.py":220:61)
#loc24 = loc("/home/zeus/miniconda3/envs/cloudspace/lib/python3.13/site-packages/fla/ops/utils/solve_tril.py":221:64)
#loc25 = loc("/home/zeus/miniconda3/envs/cloudspace/lib/python3.13/site-packages/fla/ops/utils/solve_tril.py":222:35)
#loc26 = loc("/home/zeus/miniconda3/envs/cloudspace/lib/python3.13/site-packages/fla/ops/utils/solve_tril.py":222:40)
#loc27 = loc("/home/zeus/miniconda3/envs/cloudspace/lib/python3.13/site-packages/fla/ops/utils/solve_tril.py":222:28)
#loc28 = loc("/home/zeus/miniconda3/envs/cloudspace/lib/python3.13/site-packages/fla/ops/utils/solve_tril.py":223:35)
#loc29 = loc("/home/zeus/miniconda3/envs/cloudspace/lib/python3.13/site-packages/fla/ops/utils/solve_tril.py":223:40)
#loc30 = loc("/home/zeus/miniconda3/envs/cloudspace/lib/python3.13/site-packages/fla/ops/utils/solve_tril.py":223:28)
#loc31 = loc("/home/zeus/miniconda3/envs/cloudspace/lib/python3.13/site-packages/fla/ops/utils/solve_tril.py":224:35)
#loc32 = loc("/home/zeus/miniconda3/envs/cloudspace/lib/python3.13/site-packages/fla/ops/utils/solve_tril.py":224:40)
#loc33 = loc("/home/zeus/miniconda3/envs/cloudspace/lib/python3.13/site-packages/fla/ops/utils/solve_tril.py":224:28)
#loc34 = loc("/home/zeus/miniconda3/envs/cloudspace/lib/python3.13/site-packages/fla/ops/utils/solve_tril.py":225:35)
#loc35 = loc("/home/zeus/miniconda3/envs/cloudspace/lib/python3.13/site-packages/fla/ops/utils/solve_tril.py":225:40)
#loc36 = loc("/home/zeus/miniconda3/envs/cloudspace/lib/python3.13/site-packages/fla/ops/utils/solve_tril.py":225:28)
#loc37 = loc("/home/zeus/miniconda3/envs/cloudspace/lib/python3.13/site-packages/fla/ops/utils/solve_tril.py":228:38)
#loc38 = loc("/home/zeus/miniconda3/envs/cloudspace/lib/python3.13/site-packages/fla/ops/utils/solve_tril.py":228:15)
#loc39 = loc("/home/zeus/miniconda3/envs/cloudspace/lib/python3.13/site-packages/fla/ops/utils/solve_tril.py":229:38)
#loc40 = loc("/home/zeus/miniconda3/envs/cloudspace/lib/python3.13/site-packages/fla/ops/utils/solve_tril.py":229:15)
#loc41 = loc("/home/zeus/miniconda3/envs/cloudspace/lib/python3.13/site-packages/fla/ops/utils/solve_tril.py":230:38)
#loc42 = loc("/home/zeus/miniconda3/envs/cloudspace/lib/python3.13/site-packages/fla/ops/utils/solve_tril.py":230:15)
#loc43 = loc("/home/zeus/miniconda3/envs/cloudspace/lib/python3.13/site-packages/fla/ops/utils/solve_tril.py":231:38)
#loc44 = loc("/home/zeus/miniconda3/envs/cloudspace/lib/python3.13/site-packages/fla/ops/utils/solve_tril.py":231:15)
#loc45 = loc("/home/zeus/miniconda3/envs/cloudspace/lib/python3.13/site-packages/fla/ops/utils/solve_tril.py":233:40)
#loc46 = loc("/home/zeus/miniconda3/envs/cloudspace/lib/python3.13/site-packages/fla/ops/utils/solve_tril.py":233:34)
#loc47 = loc("/home/zeus/miniconda3/envs/cloudspace/lib/python3.13/site-packages/fla/ops/utils/solve_tril.py":233:30)
#loc48 = loc("/home/zeus/miniconda3/envs/cloudspace/lib/python3.13/site-packages/fla/ops/utils/solve_tril.py":233:22)
#loc49 = loc("/home/zeus/miniconda3/envs/cloudspace/lib/python3.13/site-packages/fla/ops/utils/solve_tril.py":234:37)
#loc50 = loc("/home/zeus/miniconda3/envs/cloudspace/lib/python3.13/site-packages/fla/ops/utils/solve_tril.py":234:42)
#loc51 = loc("/home/zeus/miniconda3/envs/cloudspace/lib/python3.13/site-packages/fla/ops/utils/solve_tril.py":234:47)
#loc52 = loc("/home/zeus/miniconda3/envs/cloudspace/lib/python3.13/site-packages/fla/ops/utils/solve_tril.py":234:49)
#loc53 = loc("/home/zeus/miniconda3/envs/cloudspace/lib/python3.13/site-packages/fla/ops/utils/solve_tril.py":234:30)
#loc54 = loc("/home/zeus/miniconda3/envs/cloudspace/lib/python3.13/site-packages/fla/ops/utils/solve_tril.py":234:54)
#loc55 = loc("/home/zeus/miniconda3/envs/cloudspace/lib/python3.13/site-packages/fla/ops/utils/solve_tril.py":234:26)
#loc56 = loc("/home/zeus/miniconda3/envs/cloudspace/lib/python3.13/site-packages/fla/ops/utils/solve_tril.py":234:18)
#loc57 = loc("/home/zeus/miniconda3/envs/cloudspace/lib/python3.13/site-packages/fla/ops/utils/solve_tril.py":235:32)
#loc58 = loc("/home/zeus/miniconda3/envs/cloudspace/lib/python3.13/site-packages/fla/ops/utils/solve_tril.py":235:43)
#loc59 = loc("/home/zeus/miniconda3/envs/cloudspace/lib/python3.13/site-packages/fla/ops/utils/solve_tril.py":235:52)
#loc60 = loc("/home/zeus/miniconda3/envs/cloudspace/lib/python3.13/site-packages/fla/ops/utils/solve_tril.py":235:18)
#loc61 = loc("/home/zeus/miniconda3/envs/cloudspace/lib/python3.13/site-packages/fla/ops/utils/solve_tril.py":236:35)
#loc62 = loc("/home/zeus/miniconda3/envs/cloudspace/lib/python3.13/site-packages/fla/ops/utils/solve_tril.py":236:38)
#loc63 = loc("/home/zeus/miniconda3/envs/cloudspace/lib/python3.13/site-packages/fla/ops/utils/solve_tril.py":236:56)
#loc64 = loc("/home/zeus/miniconda3/envs/cloudspace/lib/python3.13/site-packages/fla/ops/utils/solve_tril.py":236:8)
#loc65 = loc("/home/zeus/miniconda3/envs/cloudspace/lib/python3.13/site-packages/fla/ops/utils/solve_tril.py":237:45)
#loc66 = loc("/home/zeus/miniconda3/envs/cloudspace/lib/python3.13/site-packages/fla/ops/utils/solve_tril.py":237:39)
#loc67 = loc("/home/zeus/miniconda3/envs/cloudspace/lib/python3.13/site-packages/fla/ops/utils/solve_tril.py":237:35)
#loc68 = loc("/home/zeus/miniconda3/envs/cloudspace/lib/python3.13/site-packages/fla/ops/utils/solve_tril.py":237:27)
#loc69 = loc("/home/zeus/miniconda3/envs/cloudspace/lib/python3.13/site-packages/fla/ops/utils/solve_tril.py":238:37)
#loc70 = loc("/home/zeus/miniconda3/envs/cloudspace/lib/python3.13/site-packages/fla/ops/utils/solve_tril.py":238:42)
#loc71 = loc("/home/zeus/miniconda3/envs/cloudspace/lib/python3.13/site-packages/fla/ops/utils/solve_tril.py":238:47)
#loc72 = loc("/home/zeus/miniconda3/envs/cloudspace/lib/python3.13/site-packages/fla/ops/utils/solve_tril.py":238:49)
#loc73 = loc("/home/zeus/miniconda3/envs/cloudspace/lib/python3.13/site-packages/fla/ops/utils/solve_tril.py":238:30)
#loc74 = loc("/home/zeus/miniconda3/envs/cloudspace/lib/python3.13/site-packages/fla/ops/utils/solve_tril.py":238:54)
#loc75 = loc("/home/zeus/miniconda3/envs/cloudspace/lib/python3.13/site-packages/fla/ops/utils/solve_tril.py":238:60)
#loc76 = loc("/home/zeus/miniconda3/envs/cloudspace/lib/python3.13/site-packages/fla/ops/utils/solve_tril.py":238:26)
#loc77 = loc("/home/zeus/miniconda3/envs/cloudspace/lib/python3.13/site-packages/fla/ops/utils/solve_tril.py":238:18)
#loc78 = loc("/home/zeus/miniconda3/envs/cloudspace/lib/python3.13/site-packages/fla/ops/utils/solve_tril.py":239:32)
#loc79 = loc("/home/zeus/miniconda3/envs/cloudspace/lib/python3.13/site-packages/fla/ops/utils/solve_tril.py":239:43)
#loc80 = loc("/home/zeus/miniconda3/envs/cloudspace/lib/python3.13/site-packages/fla/ops/utils/solve_tril.py":239:52)
#loc81 = loc("/home/zeus/miniconda3/envs/cloudspace/lib/python3.13/site-packages/fla/ops/utils/solve_tril.py":239:18)
#loc82 = loc("/home/zeus/miniconda3/envs/cloudspace/lib/python3.13/site-packages/fla/ops/utils/solve_tril.py":240:39)
#loc83 = loc("/home/zeus/miniconda3/envs/cloudspace/lib/python3.13/site-packages/fla/ops/utils/solve_tril.py":240:35)
#loc84 = loc("/home/zeus/miniconda3/envs/cloudspace/lib/python3.13/site-packages/fla/ops/utils/solve_tril.py":240:43)
#loc85 = loc("/home/zeus/miniconda3/envs/cloudspace/lib/python3.13/site-packages/fla/ops/utils/solve_tril.py":240:61)
#loc86 = loc("/home/zeus/miniconda3/envs/cloudspace/lib/python3.13/site-packages/fla/ops/utils/solve_tril.py":240:8)
#loc87 = loc("/home/zeus/miniconda3/envs/cloudspace/lib/python3.13/site-packages/fla/ops/utils/solve_tril.py":241:45)
#loc88 = loc("/home/zeus/miniconda3/envs/cloudspace/lib/python3.13/site-packages/fla/ops/utils/solve_tril.py":241:39)
#loc89 = loc("/home/zeus/miniconda3/envs/cloudspace/lib/python3.13/site-packages/fla/ops/utils/solve_tril.py":241:35)
#loc90 = loc("/home/zeus/miniconda3/envs/cloudspace/lib/python3.13/site-packages/fla/ops/utils/solve_tril.py":241:27)
#loc91 = loc("/home/zeus/miniconda3/envs/cloudspace/lib/python3.13/site-packages/fla/ops/utils/solve_tril.py":242:37)
#loc92 = loc("/home/zeus/miniconda3/envs/cloudspace/lib/python3.13/site-packages/fla/ops/utils/solve_tril.py":242:42)
#loc93 = loc("/home/zeus/miniconda3/envs/cloudspace/lib/python3.13/site-packages/fla/ops/utils/solve_tril.py":242:47)
#loc94 = loc("/home/zeus/miniconda3/envs/cloudspace/lib/python3.13/site-packages/fla/ops/utils/solve_tril.py":242:49)
#loc95 = loc("/home/zeus/miniconda3/envs/cloudspace/lib/python3.13/site-packages/fla/ops/utils/solve_tril.py":242:30)
#loc96 = loc("/home/zeus/miniconda3/envs/cloudspace/lib/python3.13/site-packages/fla/ops/utils/solve_tril.py":242:54)
#loc97 = loc("/home/zeus/miniconda3/envs/cloudspace/lib/python3.13/site-packages/fla/ops/utils/solve_tril.py":242:60)
#loc98 = loc("/home/zeus/miniconda3/envs/cloudspace/lib/python3.13/site-packages/fla/ops/utils/solve_tril.py":242:26)
#loc99 = loc("/home/zeus/miniconda3/envs/cloudspace/lib/python3.13/site-packages/fla/ops/utils/solve_tril.py":242:18)
#loc100 = loc("/home/zeus/miniconda3/envs/cloudspace/lib/python3.13/site-packages/fla/ops/utils/solve_tril.py":243:32)
#loc101 = loc("/home/zeus/miniconda3/envs/cloudspace/lib/python3.13/site-packages/fla/ops/utils/solve_tril.py":243:43)
#loc102 = loc("/home/zeus/miniconda3/envs/cloudspace/lib/python3.13/site-packages/fla/ops/utils/solve_tril.py":243:52)
#loc103 = loc("/home/zeus/miniconda3/envs/cloudspace/lib/python3.13/site-packages/fla/ops/utils/solve_tril.py":243:18)
#loc104 = loc("/home/zeus/miniconda3/envs/cloudspace/lib/python3.13/site-packages/fla/ops/utils/solve_tril.py":244:39)
#loc105 = loc("/home/zeus/miniconda3/envs/cloudspace/lib/python3.13/site-packages/fla/ops/utils/solve_tril.py":244:35)
#loc106 = loc("/home/zeus/miniconda3/envs/cloudspace/lib/python3.13/site-packages/fla/ops/utils/solve_tril.py":244:43)
#loc107 = loc("/home/zeus/miniconda3/envs/cloudspace/lib/python3.13/site-packages/fla/ops/utils/solve_tril.py":244:61)
#loc108 = loc("/home/zeus/miniconda3/envs/cloudspace/lib/python3.13/site-packages/fla/ops/utils/solve_tril.py":244:8)
#loc109 = loc("/home/zeus/miniconda3/envs/cloudspace/lib/python3.13/site-packages/fla/ops/utils/solve_tril.py":245:45)
#loc110 = loc("/home/zeus/miniconda3/envs/cloudspace/lib/python3.13/site-packages/fla/ops/utils/solve_tril.py":245:39)
#loc111 = loc("/home/zeus/miniconda3/envs/cloudspace/lib/python3.13/site-packages/fla/ops/utils/solve_tril.py":245:35)
#loc112 = loc("/home/zeus/miniconda3/envs/cloudspace/lib/python3.13/site-packages/fla/ops/utils/solve_tril.py":245:27)
#loc113 = loc("/home/zeus/miniconda3/envs/cloudspace/lib/python3.13/site-packages/fla/ops/utils/solve_tril.py":246:37)
#loc114 = loc("/home/zeus/miniconda3/envs/cloudspace/lib/python3.13/site-packages/fla/ops/utils/solve_tril.py":246:42)
#loc115 = loc("/home/zeus/miniconda3/envs/cloudspace/lib/python3.13/site-packages/fla/ops/utils/solve_tril.py":246:47)
#loc116 = loc("/home/zeus/miniconda3/envs/cloudspace/lib/python3.13/site-packages/fla/ops/utils/solve_tril.py":246:49)
#loc117 = loc("/home/zeus/miniconda3/envs/cloudspace/lib/python3.13/site-packages/fla/ops/utils/solve_tril.py":246:30)
#loc118 = loc("/home/zeus/miniconda3/envs/cloudspace/lib/python3.13/site-packages/fla/ops/utils/solve_tril.py":246:54)
#loc119 = loc("/home/zeus/miniconda3/envs/cloudspace/lib/python3.13/site-packages/fla/ops/utils/solve_tril.py":246:60)
#loc120 = loc("/home/zeus/miniconda3/envs/cloudspace/lib/python3.13/site-packages/fla/ops/utils/solve_tril.py":246:26)
#loc121 = loc("/home/zeus/miniconda3/envs/cloudspace/lib/python3.13/site-packages/fla/ops/utils/solve_tril.py":246:18)
#loc122 = loc("/home/zeus/miniconda3/envs/cloudspace/lib/python3.13/site-packages/fla/ops/utils/solve_tril.py":247:32)
#loc123 = loc("/home/zeus/miniconda3/envs/cloudspace/lib/python3.13/site-packages/fla/ops/utils/solve_tril.py":247:43)
#loc124 = loc("/home/zeus/miniconda3/envs/cloudspace/lib/python3.13/site-packages/fla/ops/utils/solve_tril.py":247:52)
#loc125 = loc("/home/zeus/miniconda3/envs/cloudspace/lib/python3.13/site-packages/fla/ops/utils/solve_tril.py":247:18)
#loc126 = loc("/home/zeus/miniconda3/envs/cloudspace/lib/python3.13/site-packages/fla/ops/utils/solve_tril.py":248:39)
#loc127 = loc("/home/zeus/miniconda3/envs/cloudspace/lib/python3.13/site-packages/fla/ops/utils/solve_tril.py":248:35)
#loc128 = loc("/home/zeus/miniconda3/envs/cloudspace/lib/python3.13/site-packages/fla/ops/utils/solve_tril.py":248:43)
#loc129 = loc("/home/zeus/miniconda3/envs/cloudspace/lib/python3.13/site-packages/fla/ops/utils/solve_tril.py":248:61)
#loc130 = loc("/home/zeus/miniconda3/envs/cloudspace/lib/python3.13/site-packages/fla/ops/utils/solve_tril.py":248:8)
#loc131 = loc("/home/zeus/miniconda3/envs/cloudspace/lib/python3.13/site-packages/fla/ops/utils/solve_tril.py":249:15)
#loc132 = loc("/home/zeus/miniconda3/envs/cloudspace/lib/python3.13/site-packages/fla/ops/utils/solve_tril.py":250:15)
#loc133 = loc("/home/zeus/miniconda3/envs/cloudspace/lib/python3.13/site-packages/fla/ops/utils/solve_tril.py":251:15)
#loc134 = loc("/home/zeus/miniconda3/envs/cloudspace/lib/python3.13/site-packages/fla/ops/utils/solve_tril.py":252:15)
#loc135 = loc("/home/zeus/miniconda3/envs/cloudspace/lib/python3.13/site-packages/fla/ops/utils/solve_tril.py":268:34)
#loc136 = loc("/home/zeus/miniconda3/envs/cloudspace/lib/python3.13/site-packages/fla/ops/utils/solve_tril.py":268:39)
#loc137 = loc("/home/zeus/miniconda3/envs/cloudspace/lib/python3.13/site-packages/fla/ops/utils/solve_tril.py":268:27)
#loc138 = loc("/home/zeus/miniconda3/envs/cloudspace/lib/python3.13/site-packages/fla/ops/utils/solve_tril.py":269:34)
#loc139 = loc("/home/zeus/miniconda3/envs/cloudspace/lib/python3.13/site-packages/fla/ops/utils/solve_tril.py":269:39)
#loc140 = loc("/home/zeus/miniconda3/envs/cloudspace/lib/python3.13/site-packages/fla/ops/utils/solve_tril.py":269:27)
#loc141 = loc("/home/zeus/miniconda3/envs/cloudspace/lib/python3.13/site-packages/fla/ops/utils/solve_tril.py":270:34)
#loc142 = loc("/home/zeus/miniconda3/envs/cloudspace/lib/python3.13/site-packages/fla/ops/utils/solve_tril.py":270:39)
#loc143 = loc("/home/zeus/miniconda3/envs/cloudspace/lib/python3.13/site-packages/fla/ops/utils/solve_tril.py":270:27)
#loc144 = loc("/home/zeus/miniconda3/envs/cloudspace/lib/python3.13/site-packages/fla/ops/utils/solve_tril.py":271:34)
#loc145 = loc("/home/zeus/miniconda3/envs/cloudspace/lib/python3.13/site-packages/fla/ops/utils/solve_tril.py":271:39)
#loc146 = loc("/home/zeus/miniconda3/envs/cloudspace/lib/python3.13/site-packages/fla/ops/utils/solve_tril.py":271:27)
#loc147 = loc("/home/zeus/miniconda3/envs/cloudspace/lib/python3.13/site-packages/fla/ops/utils/solve_tril.py":272:34)
#loc148 = loc("/home/zeus/miniconda3/envs/cloudspace/lib/python3.13/site-packages/fla/ops/utils/solve_tril.py":272:39)
#loc149 = loc("/home/zeus/miniconda3/envs/cloudspace/lib/python3.13/site-packages/fla/ops/utils/solve_tril.py":272:27)
#loc150 = loc("/home/zeus/miniconda3/envs/cloudspace/lib/python3.13/site-packages/fla/ops/utils/solve_tril.py":273:34)
#loc151 = loc("/home/zeus/miniconda3/envs/cloudspace/lib/python3.13/site-packages/fla/ops/utils/solve_tril.py":273:39)
#loc152 = loc("/home/zeus/miniconda3/envs/cloudspace/lib/python3.13/site-packages/fla/ops/utils/solve_tril.py":273:27)
#loc153 = loc("/home/zeus/miniconda3/envs/cloudspace/lib/python3.13/site-packages/fla/ops/utils/solve_tril.py":275:38)
#loc154 = loc("/home/zeus/miniconda3/envs/cloudspace/lib/python3.13/site-packages/fla/ops/utils/solve_tril.py":275:78)
#loc155 = loc("/home/zeus/miniconda3/envs/cloudspace/lib/python3.13/site-packages/fla/ops/utils/solve_tril.py":275:15)
#loc156 = loc("/home/zeus/miniconda3/envs/cloudspace/lib/python3.13/site-packages/fla/ops/utils/solve_tril.py":276:38)
#loc157 = loc("/home/zeus/miniconda3/envs/cloudspace/lib/python3.13/site-packages/fla/ops/utils/solve_tril.py":276:78)
#loc158 = loc("/home/zeus/miniconda3/envs/cloudspace/lib/python3.13/site-packages/fla/ops/utils/solve_tril.py":276:15)
#loc159 = loc("/home/zeus/miniconda3/envs/cloudspace/lib/python3.13/site-packages/fla/ops/utils/solve_tril.py":277:38)
#loc160 = loc("/home/zeus/miniconda3/envs/cloudspace/lib/python3.13/site-packages/fla/ops/utils/solve_tril.py":277:78)
#loc161 = loc("/home/zeus/miniconda3/envs/cloudspace/lib/python3.13/site-packages/fla/ops/utils/solve_tril.py":277:15)
#loc162 = loc("/home/zeus/miniconda3/envs/cloudspace/lib/python3.13/site-packages/fla/ops/utils/solve_tril.py":281:23)
#loc163 = loc("/home/zeus/miniconda3/envs/cloudspace/lib/python3.13/site-packages/fla/ops/utils/solve_tril.py":282:23)
#loc164 = loc("/home/zeus/miniconda3/envs/cloudspace/lib/python3.13/site-packages/fla/ops/utils/solve_tril.py":282:8)
#loc165 = loc("/home/zeus/miniconda3/envs/cloudspace/lib/python3.13/site-packages/fla/ops/utils/solve_tril.py":281:8)
#loc166 = loc("/home/zeus/miniconda3/envs/cloudspace/lib/python3.13/site-packages/fla/ops/utils/solve_tril.py":279:15)
#loc167 = loc("/home/zeus/miniconda3/envs/cloudspace/lib/python3.13/site-packages/fla/ops/utils/solve_tril.py":287:23)
#loc168 = loc("/home/zeus/miniconda3/envs/cloudspace/lib/python3.13/site-packages/fla/ops/utils/solve_tril.py":288:23)
#loc169 = loc("/home/zeus/miniconda3/envs/cloudspace/lib/python3.13/site-packages/fla/ops/utils/solve_tril.py":288:8)
#loc170 = loc("/home/zeus/miniconda3/envs/cloudspace/lib/python3.13/site-packages/fla/ops/utils/solve_tril.py":287:8)
#loc171 = loc("/home/zeus/miniconda3/envs/cloudspace/lib/python3.13/site-packages/fla/ops/utils/solve_tril.py":285:15)
#loc172 = loc("/home/zeus/miniconda3/envs/cloudspace/lib/python3.13/site-packages/fla/ops/utils/solve_tril.py":293:23)
#loc173 = loc("/home/zeus/miniconda3/envs/cloudspace/lib/python3.13/site-packages/fla/ops/utils/solve_tril.py":294:23)
#loc174 = loc("/home/zeus/miniconda3/envs/cloudspace/lib/python3.13/site-packages/fla/ops/utils/solve_tril.py":294:8)
#loc175 = loc("/home/zeus/miniconda3/envs/cloudspace/lib/python3.13/site-packages/fla/ops/utils/solve_tril.py":295:23)
#loc176 = loc("/home/zeus/miniconda3/envs/cloudspace/lib/python3.13/site-packages/fla/ops/utils/solve_tril.py":295:8)
#loc177 = loc("/home/zeus/miniconda3/envs/cloudspace/lib/python3.13/site-packages/fla/ops/utils/solve_tril.py":293:8)
#loc178 = loc("/home/zeus/miniconda3/envs/cloudspace/lib/python3.13/site-packages/fla/ops/utils/solve_tril.py":291:15)
#loc179 = loc("/home/zeus/miniconda3/envs/cloudspace/lib/python3.13/site-packages/fla/ops/utils/solve_tril.py":321:28)
#loc180 = loc("/home/zeus/miniconda3/envs/cloudspace/lib/python3.13/site-packages/fla/ops/utils/solve_tril.py":321:33)
#loc181 = loc("/home/zeus/miniconda3/envs/cloudspace/lib/python3.13/site-packages/fla/ops/utils/solve_tril.py":321:51)
#loc182 = loc("/home/zeus/miniconda3/envs/cloudspace/lib/python3.13/site-packages/fla/ops/utils/solve_tril.py":321:40)
#loc183 = loc("/home/zeus/miniconda3/envs/cloudspace/lib/python3.13/site-packages/fla/ops/utils/solve_tril.py":322:28)
#loc184 = loc("/home/zeus/miniconda3/envs/cloudspace/lib/python3.13/site-packages/fla/ops/utils/solve_tril.py":322:33)
#loc185 = loc("/home/zeus/miniconda3/envs/cloudspace/lib/python3.13/site-packages/fla/ops/utils/solve_tril.py":322:53)
#loc186 = loc("/home/zeus/miniconda3/envs/cloudspace/lib/python3.13/site-packages/fla/ops/utils/solve_tril.py":322:42)
#loc187 = loc("/home/zeus/miniconda3/envs/cloudspace/lib/python3.13/site-packages/fla/ops/utils/solve_tril.py":323:28)
#loc188 = loc("/home/zeus/miniconda3/envs/cloudspace/lib/python3.13/site-packages/fla/ops/utils/solve_tril.py":323:33)
#loc189 = loc("/home/zeus/miniconda3/envs/cloudspace/lib/python3.13/site-packages/fla/ops/utils/solve_tril.py":323:53)
#loc190 = loc("/home/zeus/miniconda3/envs/cloudspace/lib/python3.13/site-packages/fla/ops/utils/solve_tril.py":323:42)
#loc191 = loc("/home/zeus/miniconda3/envs/cloudspace/lib/python3.13/site-packages/fla/ops/utils/solve_tril.py":324:28)
#loc192 = loc("/home/zeus/miniconda3/envs/cloudspace/lib/python3.13/site-packages/fla/ops/utils/solve_tril.py":324:33)
#loc193 = loc("/home/zeus/miniconda3/envs/cloudspace/lib/python3.13/site-packages/fla/ops/utils/solve_tril.py":324:53)
#loc194 = loc("/home/zeus/miniconda3/envs/cloudspace/lib/python3.13/site-packages/fla/ops/utils/solve_tril.py":324:42)
#loc195 = loc("/home/zeus/miniconda3/envs/cloudspace/lib/python3.13/site-packages/fla/ops/utils/solve_tril.py":325:28)
#loc196 = loc("/home/zeus/miniconda3/envs/cloudspace/lib/python3.13/site-packages/fla/ops/utils/solve_tril.py":325:33)
#loc197 = loc("/home/zeus/miniconda3/envs/cloudspace/lib/python3.13/site-packages/fla/ops/utils/solve_tril.py":325:52)
#loc198 = loc("/home/zeus/miniconda3/envs/cloudspace/lib/python3.13/site-packages/fla/ops/utils/solve_tril.py":325:41)
#loc199 = loc("/home/zeus/miniconda3/envs/cloudspace/lib/python3.13/site-packages/fla/ops/utils/solve_tril.py":326:28)
#loc200 = loc("/home/zeus/miniconda3/envs/cloudspace/lib/python3.13/site-packages/fla/ops/utils/solve_tril.py":326:33)
#loc201 = loc("/home/zeus/miniconda3/envs/cloudspace/lib/python3.13/site-packages/fla/ops/utils/solve_tril.py":326:52)
#loc202 = loc("/home/zeus/miniconda3/envs/cloudspace/lib/python3.13/site-packages/fla/ops/utils/solve_tril.py":326:41)
#loc203 = loc("/home/zeus/miniconda3/envs/cloudspace/lib/python3.13/site-packages/fla/ops/utils/solve_tril.py":327:28)
#loc204 = loc("/home/zeus/miniconda3/envs/cloudspace/lib/python3.13/site-packages/fla/ops/utils/solve_tril.py":327:33)
#loc205 = loc("/home/zeus/miniconda3/envs/cloudspace/lib/python3.13/site-packages/fla/ops/utils/solve_tril.py":327:53)
#loc206 = loc("/home/zeus/miniconda3/envs/cloudspace/lib/python3.13/site-packages/fla/ops/utils/solve_tril.py":327:42)
#loc207 = loc("/home/zeus/miniconda3/envs/cloudspace/lib/python3.13/site-packages/fla/ops/utils/solve_tril.py":328:28)
#loc208 = loc("/home/zeus/miniconda3/envs/cloudspace/lib/python3.13/site-packages/fla/ops/utils/solve_tril.py":328:33)
#loc209 = loc("/home/zeus/miniconda3/envs/cloudspace/lib/python3.13/site-packages/fla/ops/utils/solve_tril.py":328:52)
#loc210 = loc("/home/zeus/miniconda3/envs/cloudspace/lib/python3.13/site-packages/fla/ops/utils/solve_tril.py":328:41)
#loc211 = loc("/home/zeus/miniconda3/envs/cloudspace/lib/python3.13/site-packages/fla/ops/utils/solve_tril.py":329:28)
#loc212 = loc("/home/zeus/miniconda3/envs/cloudspace/lib/python3.13/site-packages/fla/ops/utils/solve_tril.py":329:33)
#loc213 = loc("/home/zeus/miniconda3/envs/cloudspace/lib/python3.13/site-packages/fla/ops/utils/solve_tril.py":329:53)
#loc214 = loc("/home/zeus/miniconda3/envs/cloudspace/lib/python3.13/site-packages/fla/ops/utils/solve_tril.py":329:42)
#loc215 = loc("/home/zeus/miniconda3/envs/cloudspace/lib/python3.13/site-packages/fla/ops/utils/solve_tril.py":330:28)
#loc216 = loc("/home/zeus/miniconda3/envs/cloudspace/lib/python3.13/site-packages/fla/ops/utils/solve_tril.py":330:33)
#loc217 = loc("/home/zeus/miniconda3/envs/cloudspace/lib/python3.13/site-packages/fla/ops/utils/solve_tril.py":330:53)
#loc218 = loc("/home/zeus/miniconda3/envs/cloudspace/lib/python3.13/site-packages/fla/ops/utils/solve_tril.py":330:42)
#loc219 = loc("/home/zeus/miniconda3/envs/cloudspace/lib/python3.13/site-packages/fla/ops/utils/solve_tril.py":299:4)
#loc221 = loc("/home/zeus/miniconda3/envs/cloudspace/lib/python3.13/site-packages/triton/language/standard.py":290:36)
#loc223 = loc("/home/zeus/miniconda3/envs/cloudspace/lib/python3.13/site-packages/triton/language/standard.py":290:11)
#loc224 = loc("/home/zeus/miniconda3/envs/cloudspace/lib/python3.13/site-packages/triton/language/standard.py":290:4)
#loc226 = loc("/home/zeus/miniconda3/envs/cloudspace/lib/python3.13/site-packages/triton/language/standard.py":260:15)
#loc227 = loc("/home/zeus/miniconda3/envs/cloudspace/lib/python3.13/site-packages/triton/language/standard.py":260:11)
#loc228 = loc("/home/zeus/miniconda3/envs/cloudspace/lib/python3.13/site-packages/triton/language/standard.py":260:4)
